net.pt (torch, 33981 bytes, 31 tensors)

feat_extract.0.weight f4 [20, 2]
000000 78 26 fb bd 22 1e 36 3e ff dc 13 3f 29 f7 d0 be
       -0.12263197 0.17784932 0.5775909 -0.40813568
000010 72 c5 15 3f 51 03 a3 be c7 34 05 3f 6d 06 35 3f
       0.585044 -0.31838468 0.52033657 0.7071293
000020 4f 90 41 b9 00 4e 29 bc f5 64 fc 3e d8 c0 2b bf
       -0.00018459673 -0.010333538 0.49295774 -0.6709113
000030 7d ae ea 3d 51 43 9f be 4b a6 b4 3e 58 46 ba be
       0.11459062 -0.31106046 0.3528312 -0.36381793
000040 46 bd 0d bf b8 24 66 bf 00 37 2c 3e fb 89 05 bf
       -0.55366933 -0.8989978 0.16817856 -0.52163666
000050 2c 9a 01 3f 0e ba 0e 3f 10 14 34 bd 79 22 74 bc
       0.5062587 0.55752647 -0.043964446 -0.014900797
000060 dd 7a 14 3f 36 10 f1 3e 4a ed 07 bf d5 4e 42 3f
       0.57999974 0.4708268 -0.5309645 0.7590154
000070 5a 40 07 3f 83 eb f2 3e ea 9a 1e 3d 61 89 41 3e
       0.5283257 0.47445306 0.038721956 0.18900062
000080 af e4 10 3f ac 81 1c bf 9b 8e 07 be 52 ab 8f bd
       0.56598943 -0.61135364 -0.13237993 -0.07015099
000090 7e 9d 05 3f 4f 74 84 3d 45 f4 fe be 0f b6 dc be
       0.5219344 0.064674966 -0.49795738 -0.4310765

feat_extract.0.bias f4 [20]
000000 d2 b0 03 3f bd e5 8d 3e 09 c9 cc be 43 e5 9a 3e
       0.5144168 0.2771434 -0.39997128 0.30253038
000010 70 61 e7 3e 67 4b e9 3d 68 98 20 3e 0e 38 42 be
       0.45191526 0.11391335 0.15683138 -0.18966696
000020 23 5b 15 bf c8 41 20 3f 80 73 71 bc 58 63 fe 3e
       -0.5834219 0.62600374 -0.01473701 0.49685168
000030 b7 34 2a bf 42 0e a9 3e 8e b3 ac 3e e2 0d c5 be
       -0.66486686 0.3301869 0.3373074 -0.38487154
000040 1f 37 10 3f 0f 3a f6 3e 62 62 6d 3e fd b5 93 3e
       0.5633411 0.4809117 0.23182061 0.28849784

feat_extract.2.weight f4 [20, 20]
000000 0a 0c 80 bd 02 07 9f be 01 45 73 be 69 09 8b bd
       -0.06252296 -0.31060034 -0.23756792 -0.06788904
000010 4a a2 d3 3c 64 d4 e6 3d 4e 70 6b bd 8c 2b 5c 3d
       0.025834221 0.11270979 -0.05748015 0.053752467
000020 d4 ef a7 3e 5d 0a 27 be 85 67 eb 3d 07 0e da 3d
       0.32800162 -0.16312547 0.11494354 0.10647207
000030 1d ec bf 3d 6d 98 45 3d 1a af ee bd 02 c5 bc 3d
       0.09371207 0.048241068 -0.11654492 0.09217264
000040 1b 98 6b be 4b a1 2b 3e 6b 31 77 be 37 80 6e bd
       -0.23007242 0.16760747 -0.24139945 -0.058227744
000050 ac 51 88 3d bc b3 eb bd f5 11 10 be 1f b6 dc bd
       0.06656203 -0.11508891 -0.1406935 -0.10776924
000060 d8 ec ce 3d 6e 0c 16 3e ad 06 c1 3d 24 33 56 3e
       0.10103768 0.14653179 0.094251014 0.20917946
000070 17 4d fe bd 26 ce 46 3d 48 5d 8f 3d 48 12 d1 3d
       -0.124170475 0.048536442 0.07000214 0.10208565
000080 5a a3 00 3e 00 7c 12 be 40 1e 71 3d 7e b2 83 3d
       0.12562314 -0.14305115 0.05886674 0.06430529
000090 5a c5 1d 3e 24 ba 12 bd a1 08 f4 3d 58 b5 f6 bd
       0.15407315 -0.03582205 0.11915708 -0.12046307
0000a0 e1 11 80 3e 63 51 ae bd 49 0e 07 be 6d d2 68 bd
       0.2501364 -0.08511617 -0.13189043 -0.056841303
0000b0 56 a6 61 3e 68 85 7e be 55 d4 48 be 2b ed 61 be
       0.22036108 -0.24855578 -0.19612248 -0.22063129
0000c0 3b 90 17 3d fe ff f2 3c 3b eb d8 3d b1 1f 28 3e
       0.037002783 0.029663082 0.10591742 0.1641834
0000d0 73 af 1f be 92 bc de 3e d8 92 88 3d 95 7b c5 bc
       -0.15594272 0.43503243 0.06668633 -0.02410678
0000e0 d5 e7 df 3d 7a 4e 79 3e c0 58 06 3e 02 e9 65 3e
       0.1093289 0.24346343 0.13119793 0.22452167
0000f0 e0 1f 28 be ed f8 0d 3d eb b2 a3 3d e9 d3 3d bd
       -0.1641841 0.034661222 0.0799311 -0.04634467
000100 26 8f ba 3c 71 3d 47 3d 4d 1b bc bd 68 ab 1a bd
       0.022773337 0.04864258 -0.09184895 -0.037761122
000110 54 f5 22 be d8 12 10 be 0d 96 3d bd 9f 53 69 bd
       -0.15913898 -0.14069688 -0.046285678 -0.056964513
000120 61 16 f5 bd cc 49 25 be 99 ce 53 3e 64 21 23 be
       -0.11967159 -0.16141433 0.2068428 -0.15930706
000130 ed 0c 1b 3e 41 19 a7 bc b4 62 b7 3d b2 50 0d bd
       0.1514165 -0.020397784 0.08954373 -0.034500785
000140 f4 11 0d be f3 2a 0b 3c 6f 79 b9 bd f7 dc 84 be
       -0.1377638 0.008494127 -0.09056365 -0.25949833
000150 17 f1 cd 3d 12 30 53 bd ac a5 2c 3e 97 62 f6 bc
       0.1005575 -0.051559515 0.16860074 -0.030076308
000160 bb 0a af 3d ec 4a 8f 3d 51 e5 cd 39 69 91 89 bd
       0.085469685 0.06996712 0.000392715 -0.06717188
000170 ce 87 16 be 8c 91 4c bc 30 c6 0b 3c 66 89 e9 3d
       -0.14700243 -0.012485873 0.008531138 0.1140316
000180 d6 b2 5a bc 76 ca 9a 3d 4e f5 38 bd b2 ee 88 3e
       -0.013348302 0.075581476 -0.045155816 0.2674461
000190 bd 13 0e be e6 ce f4 3c 0c 30 bb 3d 9c 0e fa 3d
       -0.13874717 0.029883813 0.091400236 0.12209818
0001a0 c2 9b 37 3d b2 a0 1c 3d 45 f0 85 3c 48 70 cc 3d
       0.044826277 0.03823919 0.016349921 0.099823534
0001b0 7c f7 85 3d 5d c5 7d 3d a6 11 4b 3e 0e 84 48 3e
       0.065413445 0.0619558 0.19830951 0.19581625
0001c0 f2 1a 47 3e ac a3 52 be 6d 2a 50 ba e6 ff 3b 3e
       0.19443873 -0.20570248 -0.0007940892 0.18359336
0001d0 b2 c6 15 3e 81 78 42 3d 89 81 84 3d 03 c8 d5 bd
       0.14626577 0.047478203 0.06470019 -0.1043854
0001e0 31 a0 a1 bc f2 8a eb bd 52 fb f3 3d 68 b4 fe 3d
       -0.019729706 -0.11501111 0.1191317 0.124367535
0001f0 91 de ef bd a3 a6 58 3d 99 16 03 be 48 73 51 3e
       -0.11712373 0.052893292 -0.12801589 0.20454133
000200 6b c4 09 be d6 c4 50 be 2d 01 07 3e 05 bd 7a 3d
       -0.13453834 -0.20387587 0.13184042 0.06121542
000210 c4 eb 8a 3e b4 83 b1 be cc cb 12 bc e5 d2 51 3c
       0.27133 -0.34670794 -0.008959722 0.012806629
000220 47 82 47 be 68 87 90 bd f7 cc ff bd d9 ea 8c be
       -0.1948329 -0.07057077 -0.12490266 -0.27522925
000230 e4 92 26 3e 2d 5b e3 3b 1b 39 8b 3e 58 7d af bd
       0.16266972 0.0069383592 0.27192006 -0.08568829
000240 d2 4c 40 3e 45 a2 85 3e 6a 93 52 3e 84 16 80 bc
       0.18779305 0.26100364 0.20564047 -0.015635736
000250 f9 f0 46 be af a4 3f bd 55 46 8d 3e 53 e1 96 bd
       -0.19427861 -0.046787914 0.27592722 -0.07367196
000260 0f 10 76 3d 5a 52 9e 3d b8 86 0d bd 57 d3 2d be
       0.06007391 0.07730551 -0.034552306 -0.16975151
000270 de 42 0d 3d 9e 25 50 3d 01 e8 12 3e e6 75 1d 3e
       0.034487598 0.050817125 0.14346315 0.15377006
000280 91 7d 60 3d 30 36 48 be 6b f6 08 be 68 c1 75 be
       0.05480725 -0.19551921 -0.13375251 -0.2399956
000290 2a 8f 38 be d4 21 e9 3d c5 ef 33 be 28 03 66 bd
       -0.18023363 0.11383405 -0.17571934 -0.056155354
0002a0 0d 60 09 3e 75 47 5d be 3e 65 23 be 6d f5 15 bd
       0.13415547 -0.2160929 -0.1595659 -0.03661101
0002b0 ac 2b 35 3e 55 e5 69 bd 7d d3 fc 3c bc 9b 38 be
       0.17692441 -0.057103474 0.030862564 -0.18028158
0002c0 40 5b e9 bd c5 b6 83 bc 14 c5 34 be cb 1d 88 bd
       -0.11394358 -0.016078362 -0.17653304 -0.066463076
0002d0 2f 4a 01 3e 7f a9 89 3d 84 bf 98 be 12 d2 c7 3d
       0.12625955 0.06721782 -0.29833615 0.097568646
0002e0 dc 38 41 bd 8b f5 55 3e 2e f4 0e ba 21 ff cd bd
       -0.047173366 0.20894448 -0.0005453256 -0.100584276
0002f0 6d 5f 70 be 53 70 43 3e 3e 3d 24 bd dc 7f 73 bd
       -0.23473902 0.19085817 -0.040097468 -0.059448108
000300 48 a2 cb bd e8 2f 3e 3e 89 55 b7 3d 38 28 33 3d
       -0.09943062 0.18572962 0.089518614 0.043739527
000310 02 b3 a8 3c 93 64 31 3e 02 c6 80 3d 78 41 0d be
       0.02059317 0.17323522 0.06287767 -0.13794506
000320 bd 0e c2 3c 5c b4 54 3e fd e0 8b bd fd 8a 0d be
       0.023688668 0.20771927 -0.068300225 -0.13822551
000330 1e e4 1e be cf a6 4c 3e 66 0e 14 be f6 2e 07 be
       -0.15516707 0.19985507 -0.14458618 -0.13201508
000340 0f fb 11 3e 12 15 7e 3c 4d 26 12 be 13 e8 31 be
       0.14255928 0.015507953 -0.14272423 -0.17373686
000350 53 a7 6a be 10 15 30 3e 76 c2 c2 ba 03 b2 a5 3c
       -0.22915392 0.17195535 -0.0014858979 0.020226484
000360 34 e8 0f 3d f3 11 44 3e f5 7c 2c 3d ff 34 00 be
       0.035133556 0.19147472 0.042111356 -0.12520216
000370 ac b0 87 bd 75 41 90 bd 76 49 5c be 8d 70 5a be
       -0.06625494 -0.07043735 -0.21512398 -0.21331997
000380 fc 1c fa bd 92 fa 58 be 8a dd b3 bd ff 38 8a 3d
       -0.122125596 -0.21189335 -0.087824896 0.067491524
000390 d8 f6 0e 3e 5d c6 2d 3e c6 56 59 be 92 97 18 bd
       0.13961351 0.16970201 -0.21224508 -0.037253924
0003a0 9c ad ad 3d ab f6 15 bd 7c 5d ec 3d b7 a2 fe 3d
       0.08480379 -0.036612194 0.11541268 0.12433379
0003b0 e8 1a e3 3c aa d0 b9 3d f4 54 73 3c b2 38 70 3e
       0.02772279 0.09073003 0.014851797 0.23459128
0003c0 15 8c 0d be a0 e1 4b 3c 2b ac ef 3c 24 17 86 3d
       -0.13822968 0.01244393 0.0292569 0.065473825
0003d0 49 8b 83 bd 00 7e 9d bc f1 9a 05 bd c3 a7 1b be
       -0.06423051 -0.01922512 -0.032618467 -0.15200715
0003e0 c9 a6 72 3e 03 e5 07 be a8 91 5b be 8a 3f cb 3d
       0.23696436 -0.13270955 -0.21442282 0.099242285
0003f0 03 1f bb 3c 77 76 c4 3d 63 21 95 be d4 95 e6 bd
       0.022841936 0.09592908 -0.29127035 -0.11259046

feat_extract.2.bias f4 [20]
000000 f7 d4 3e 3d 2a 9c b2 bc 18 f2 f0 3d 32 6f 15 3e
       0.046589818 -0.02180298 0.11764926 0.14593199
000010 85 2f 2f 3d fe 3c 3d 3d 1a e4 16 bc 35 3d 11 3d
       0.042769928 0.046200745 -0.009209657 0.035458762
000020 3c 2e 14 be c9 4c f0 bc 10 07 d2 3d 75 f3 33 be
       -0.14470762 -0.029333489 0.10255253 -0.1757334
000030 32 0a d7 bd c2 ff 47 bc 7c 6d 06 3d 40 8a d4 3d
       -0.104999915 -0.0122069735 0.032819256 0.103779316
000040 5d b8 52 3e 0a 96 06 3e d5 6f d5 3d 4a ef c3 bd
       0.20578142 0.13143173 0.10421721 -0.09567125

feat_extract.4.weight f4 [20, 20]
000000 7b 3b 8e 3e eb b5 6a be 12 9d eb 3c 17 9a 4e be
       0.27779755 -0.22920959 0.02876142 -0.20175968
000010 42 c8 ea 3d eb 51 45 be 4c 4d f9 bc 5a d5 0a be
       0.114639774 -0.1926953 -0.030432366 -0.1355795
000020 a1 45 16 be b1 b3 77 be 6d 30 85 3d 32 a0 f5 3d
       -0.14674999 -0.2418964 0.06503377 0.119934455
000030 92 f7 29 3e 3d d7 70 be 3d c3 36 3e b8 0e b4 3d
       0.16598347 -0.23519607 0.17847915 0.0879187
000040 e1 ad 37 3c 11 8b 23 bd 1b be 0d 3b 14 eb 86 3d
       0.01121089 -0.039927546 0.0021628204 0.06587806
000050 d7 38 89 3d 9b 3a 03 be 1b cf b7 bb 0f 5e 4f 3e
       0.067002945 -0.12815325 -0.0056094057 0.20250724
000060 b0 a7 4a 3e 5b bf e7 3c b6 5e 44 bc 55 ab 31 3e
       0.1979053 0.028289488 -0.0119854715 0.17350514
000070 5c ed 4e bd 5b 3d c6 bd 76 a2 45 3e f0 ca 0d 3e
       -0.050519332 -0.096796714 0.19300255 0.13846946
000080 93 98 14 bd bc b4 e7 bd d1 94 7f 3e 75 91 08 3e
       -0.03627832 -0.11313769 0.24959113 0.13336737
000090 14 85 ba 3d ab d8 06 3d c7 44 1d 3e 4c 40 05 3e
       0.09107414 0.032921474 0.15358268 0.13012809
0000a0 2c c3 e4 bc 0a bf 21 3e 72 86 ea 3d 2b 70 4a bb
       -0.027925096 0.15795532 0.11451425 -0.0030889611
0000b0 36 f6 e8 bd 23 ea 8a 3e 80 21 27 bd bb 95 43 3d
       -0.11375086 0.27131757 -0.040803432 0.047750216
0000c0 35 86 6f be fd 86 34 3c 41 b9 73 3e 31 ba 3b be
       -0.2339104 0.011018512 0.23801138 -0.18332745
0000d0 13 6b 9b be 97 02 af bd a3 52 f9 3d 85 3a a9 3d
       -0.3035513 -0.08545416 0.12173965 0.08263115
0000e0 ee 2c 24 3e 55 8c a7 bd 64 14 06 3e 3d 66 18 3d
       0.16032764 -0.08181063 0.13093716 0.037206877
0000f0 76 ef 0e 3e 21 aa 39 be b7 2f a0 3d b7 07 58 be
       0.13958535 -0.18131305 0.07821601 -0.21096693
000100 a7 e3 83 bd 3e 88 63 be 61 fc b5 bd 83 85 27 bd
       -0.064399056 -0.22219941 -0.08886028 -0.04089881
000110 14 8f 8f bd 4c 0c d0 bd 10 72 ec bd 86 8f 93 bd
       -0.07009712 -0.101585954 -0.11545193 -0.07205109
000120 b4 66 f3 3d c0 54 65 be ec 19 08 be d8 59 f5 bd
       0.118848234 -0.22395611 -0.13291138 -0.11980027
000130 fd 11 6d 3e 57 77 3a be cc 44 61 be 97 01 0f bb
       0.23151393 -0.18209587 -0.219989 -0.0021821016
000140 77 e8 32 3e 41 35 55 3d 73 6f 33 3e 6d bd ca 3d
       0.17471491 0.05205274 0.17522983 0.09899411
000150 8d b4 16 3e 90 1d b9 3c fa 55 87 bc 16 ae a9 bd
       0.14717312 0.022597104 -0.016520489 -0.082851574
000160 3d c6 55 be 33 c8 df bd b0 92 12 bb d6 b2 7d 3d
       -0.20876403 -0.10926857 -0.0022365265 0.06193813
000170 fc aa 24 3e 10 2b 7e be 92 b9 e7 bd 70 43 af bd
       0.1608085 -0.24821115 -0.113146916 -0.085577846
000180 2e 05 0d 3e f4 4e e5 bd de 21 27 3e 6b 47 36 3e
       0.13771507 -0.111967 0.16321513 0.17800681
000190 4c 4f 7c be 13 3b 42 be 47 23 b6 bc 9d 92 ff bd
       -0.24639624 -0.18967848 -0.022233618 -0.12479136
0001a0 6a 50 a7 3e 5f 6a 41 be f5 e1 e5 bd 36 e8 a2 3d
       0.3267854 -0.18888234 -0.112247385 0.07954447
0001b0 52 7d c8 3c c9 c1 09 3e dd 7e 87 3c 79 58 95 bd
       0.02447382 0.1345283 0.016539985 -0.072922654
0001c0 24 37 0e 3e 13 37 86 3d 95 fe 5c bd 3c bf e5 bb
       0.13888222 0.06553473 -0.053953726 -0.0070113223
0001d0 d1 d6 38 3e b6 43 de 3c e3 ba 27 be 27 b9 19 be
       0.18050696 0.027131896 -0.16379885 -0.15012036
0001e0 94 95 9f bd a9 c8 6a 3e d6 db 19 be e3 f5 05 3d
       -0.07792202 0.22928108 -0.15025267 0.0327052
0001f0 8b b0 86 3c 2a 22 84 3e 9a a5 a4 3e f3 f2 02 3e
       0.016441604 0.25807315 0.32157594 0.1278799
000200 ab 88 d1 bb 04 83 6b be 22 84 8f be a1 b1 6c be
       -0.006394466 -0.22999197 -0.28030497 -0.23114635
000210 2a a5 b1 3d 59 fb b5 3d 85 83 06 bd 98 4a 4f be
       0.08674081 0.088858314 -0.03284027 -0.20243299
000220 30 9a 9a be 55 33 48 3e 3f 06 5f bb 3b 13 52 3e
       -0.3019576 0.19550832 -0.0034030823 0.20515148
000230 58 2b de 3b 7c 9e 9b bc 3b ef 46 3e b2 0b 71 3e
       0.0067800693 -0.01899647 0.19427197 0.23539618
000240 6d 1e 9d 3e 75 91 e1 bb 8e d8 b5 bd b8 6e 5f 3d
       0.30687276 -0.006883795 -0.08879195 0.05454895
000250 92 d5 00 bd ba 2a a9 3d 8c 96 6d 3e bb fa 38 bd
       -0.031453677 0.082601026 0.2320196 -0.04516099
000260 84 7b b5 3b 08 ff 17 3e 09 ef 92 3e e9 24 58 3e
       0.005538406 0.1484338 0.28697994 0.2110783
000270 7f 8e 67 3e 6f 28 93 be 48 19 7d be 7d 7c e0 3d
       0.22612952 -0.28741786 -0.24716675 0.10961244
000280 0a a9 7c 3d b4 77 13 3e e6 ff 15 be 3f 8a 82 be
       0.061684646 0.14401132 -0.14648399 -0.25496098
000290 8c 74 20 3e 49 af f3 3c 37 c5 a1 bc b5 f4 3b be
       0.15669459 0.029746668 -0.01974736 -0.18355067
0002a0 b2 71 24 3e 0c f4 d8 3d d0 92 e3 bd aa ec 31 3d
       0.16058996 0.10593423 -0.11111987 0.04343859
0002b0 40 37 8e 3e 3b f0 63 3d 35 e6 54 3c 18 82 b4 bd
       0.27776527 0.055649024 0.012994339 -0.08813876
0002c0 35 cf 0c 3e ef e2 14 be e2 7a 23 be 37 2b 24 3c
       0.13750918 -0.14539693 -0.15964845 0.010020069
0002d0 e4 fc 20 be 35 19 0b 3d 20 72 77 3c 86 2e 38 3c
       -0.1572147 0.033959586 0.015102893 0.011241561
0002e0 10 c6 19 bd f1 80 22 3e f1 75 32 be 66 de 05 3e
       -0.037542403 0.158695 -0.17427804 0.1307312
0002f0 b5 df 5e be 83 8c 5e 3c 34 97 14 be d3 64 3d 3c
       -0.21765025 0.013583305 -0.14510804 0.011559683
000300 4d 5d 11 be b4 23 45 3e 8c 5f ed 3c a8 28 7e 3e
       -0.14195748 0.19251901 0.028976224 0.24820197
000310 74 0d f7 3d b6 e1 3e 3e 5f 90 f2 bd d3 b6 0a 3e
       0.12063113 0.1864079 -0.11843943 0.13546304
000320 8d 98 ae bd c6 48 3e 3e 73 aa 78 be 50 42 a5 bd
       -0.085251905 0.18582448 -0.24283771 -0.08069289
000330 e9 b5 a7 3d d0 b9 20 3e 48 24 85 bd 4c 58 61 bd
       0.081889935 0.15695882 -0.06501061 -0.055015847
000340 a5 06 02 3d 87 f2 59 3e a6 23 97 bd 78 ff 5d be
       0.031744618 0.21283923 -0.07379846 -0.21679485
000350 30 0c 6f be b8 c3 79 3e c8 6c 71 3e b0 f6 d1 bd
       -0.23344493 0.24391067 0.23576653 -0.1025213
000360 8c 91 94 bd fe 00 48 bd 18 c6 74 bd 59 d8 83 be
       -0.07254323 -0.04882907 -0.05975923 -0.25750998
000370 02 de a4 3d 58 3b a1 3d 95 89 bb bd 89 28 a3 ba
       0.08050157 0.07872647 -0.09157101 -0.0012447994
000380 db ed 1b be 25 e6 3e 3e aa 7e 0e 3e 71 60 18 3e
       -0.15227453 0.1864248 0.13915506 0.1488054
000390 b9 f6 72 3d 96 f7 88 3d 38 ca c4 bd 25 28 82 3d
       0.059317324 0.06687848 -0.09608883 0.06355313
0003a0 ca 26 1c be db 61 79 3d af 7a 42 be 68 42 03 3e
       -0.15249172 0.060884338 -0.18992113 0.128183
0003b0 ec 07 1d be c7 66 84 3e 10 9a 3a 3e 11 54 65 3e
       -0.15335053 0.25859663 0.18222833 0.2239535
0003c0 6d 6e a0 3d c8 5e 65 3e dc 87 5c be 29 55 d9 bd
       0.07833562 0.22399437 -0.21536201 -0.10611946
0003d0 a8 e2 8e 3d c2 e2 21 3d 20 bf 8d 3e 96 21 f6 ba
       0.06976825 0.039522894 0.2768488 -0.001877832
0003e0 28 9c d9 3d 41 b3 2f be 1d 84 f5 bd 1a 6e 6d be
       0.106254876 -0.17158224 -0.11988089 -0.23186532
0003f0 25 5a 15 3e 79 8e 22 3e b5 05 b7 3d 0f 7b 7f bd
       0.14585169 0.15874662 0.089366354 -0.062373217

feat_extract.4.bias f4 [20]
000000 a9 2b 4e be 99 a8 87 3e e5 0c 1f be fb 5e ac 3d
       -0.20133843 0.26495817 -0.15532263 0.084165536
000010 a8 4b ff 3d f0 b2 85 3d 02 d3 0e bd 41 db 1c 3e
       0.12465602 0.0652827 -0.0348692 0.15318014
000020 db d1 dc 3d d7 d7 ff bd 15 cb 2b be b4 4c d9 3d
       0.10782214 -0.1249234 -0.16776688 0.10610333
000030 d3 73 65 be 46 9e 43 3e 18 31 76 3e a1 9a 41 be
       -0.22407465 0.19103345 0.24042165 -0.18906642
000040 b7 a1 14 3e 56 f1 2e 3e bd 17 ce bc 82 8e d6 3c
       0.14514814 0.1708425 -0.025157804 0.026191

feat_extract.6.weight f4 [20, 20]
000000 51 40 29 3e 2f be 88 3e 9e 61 05 be fc 8c 32 3d
       0.16528441 0.267076 -0.13025519 0.043591484
000010 bd 2e 78 3d 76 11 8f 3e da ef 7f be 1a 73 8b 3e
       0.060591448 0.2794301 -0.2499384 0.27236253
000020 8d 86 5e 3e dc ad 84 bc c4 e1 49 bd 10 df 25 be
       0.21731015 -0.016196184 -0.049287573 -0.16198373
000030 20 51 cc be c9 c2 72 bd 34 87 2b be c0 0a 99 be
       -0.39905643 -0.059267793 -0.16750795 -0.29891014
000040 eb 11 68 be 5e 6a 09 3e e6 f2 c5 bd 10 98 8d bd
       -0.22663085 0.13419482 -0.0966547 -0.06913769
000050 7e 5b 90 bd 7e cd bd 3c 5f 13 75 be c3 4d 5e bd
       -0.07048701 0.023169275 -0.2393317 -0.054273378
000060 6b 2b 87 3e 3b b2 48 be b0 7b 10 3e 6b 73 a9 3d
       0.26400313 -0.1959924 0.14109683 0.08273967
000070 c9 6e 51 3d 95 cc 8f be 3e 2e 59 be c3 32 60 bd
       0.051131044 -0.2808577 -0.21209046 -0.05473591
000080 dd db b5 bd 4d 9d 30 3d 42 e6 8d 3a 3f ac 8f 3d
       -0.08879826 0.043118764 0.0010826068 0.07015275
000090 20 ca 32 be a1 82 5a be cd 75 56 3e cd 3c 76 be
       -0.17459917 -0.21338893 0.20943375 -0.24046631
0000a0 ea 84 32 3e 58 05 47 bd 0c 17 2f be 19 67 24 3b
       0.17433515 -0.04858908 -0.17098635 0.0025085865
0000b0 fa a9 4b be ff 1e eb bd 3f 58 7d be f3 87 23 3d
       -0.1988906 -0.114805214 -0.24740694 0.039924573
0000c0 7b a1 8c bd e9 b1 0d 3e e7 93 73 be 13 d1 f6 3d
       -0.068667375 0.13837399 -0.23786889 0.120515965
0000d0 54 08 63 3d 90 3f 3f be 1d 80 39 be cc 4a f7 3d
       0.055427864 -0.18676591 -0.18115278 0.12074813
0000e0 0b 88 32 be fc ef 8d be 5d 99 42 3e 3b 37 df bd
       -0.17434709 -0.27722156 0.19003816 -0.10899206
0000f0 1c 62 5c 3e e8 24 3e be 35 e1 33 be 96 8d 56 3d
       0.21521801 -0.18568766 -0.17566378 0.05238112
000100 63 9f c9 bc 99 d9 4f 3e c9 a5 8a be 29 7b ec bb
       -0.024612134 0.2029785 -0.2707961 -0.0072168303
000110 20 89 03 3e 0a b8 02 be d3 dc af bd 14 51 88 3d
       0.12845278 -0.12765518 -0.08587041 0.066560894
000120 5e 37 ef bd 5d f7 63 3e 55 cd 3b be 45 4f 86 be
       -0.11680482 0.2226233 -0.18340047 -0.26232353
000130 54 5b e2 3d 9b 7a 46 bd de 15 51 bd 4a a6 ff bd
       0.11052576 -0.04845677 -0.051046245 -0.12482889
000140 d6 3f 59 bc 76 d8 7b 3b 06 c1 63 3d b6 b8 30 3e
       -0.013259849 0.0038428581 0.055604003 0.17257962
000150 f0 84 3c be d8 a0 07 be 30 8e 95 3e f5 19 30 bc
       -0.18410087 -0.13244951 0.29210043 -0.010748376
000160 ed 61 24 3d 3f 32 7a 3e 24 7a 38 3e d7 c2 a5 3d
       0.04013245 0.2443323 0.18015343 0.080938034
000170 1d bc 9a 3d 70 c4 92 bd 9b 7b 83 3e ad e7 92 3e
       0.07555411 -0.07166374 0.2568024 0.2869238
000180 37 f4 3d 3e 64 f2 06 3e 6d 9e 35 bd 98 20 29 be
       0.18550192 0.13178402 -0.04434054 -0.1651634
000190 9d 06 82 3e 15 71 61 be 9d c8 76 be f8 86 84 3e
       0.2539567 -0.22015794 -0.24099965 0.25884223
0001a0 90 ce 26 bd bb c9 14 bd 49 c1 d8 3d f3 02 8e be
       -0.040724337 -0.036325198 0.10583741 -0.27736625
0001b0 de 68 04 3e c9 29 70 be 3f 70 4d bd 25 ee 1d 3c
       0.12930629 -0.2345344 -0.050155874 0.009639298
0001c0 ce 69 c1 3d cb 0d 42 be 97 cc b4 be d0 99 5c bc
       0.09444009 -0.18950574 -0.3531234 -0.013464406
0001d0 c6 2d 9d ba 0d 99 13 be 16 16 88 3e 8b 02 26 be
       -0.0011991791 -0.14413853 0.2657935 -0.16211908
0001e0 2d 3b 55 3e 22 95 33 3d 63 05 02 be 82 e5 39 3e
       0.20823355 0.043843396 -0.12697367 0.18153957
0001f0 03 7b 9f 3d 5a 98 7b 3d c2 d8 53 be ce d5 c6 bd
       0.077871345 0.06142459 -0.20688155 -0.09708749
000200 68 0e 21 3e 3b 1f ee 3d 74 52 97 be 21 8c 91 3d
       0.15728152 0.116270505 -0.29555094 0.071068056
000210 43 b4 13 3e 89 05 2a be 32 df 1d 3e 64 f0 c7 bc
       0.14424233 -0.16603674 0.15417174 -0.02440662
000220 e3 52 19 be b2 06 d2 bd 85 c3 4a 3c dc 6f 3b be
       -0.14973025 -0.10255183 0.012375717 -0.1830439
000230 89 da 48 3e a2 45 4c be 8e 66 12 be 68 66 d3 3d
       0.19614615 -0.19948438 -0.14296934 0.10322267
000240 a5 e0 20 3e 62 40 c3 3c c6 55 6a bd 87 ca 12 3e
       0.15710695 0.023834411 -0.057210706 0.1433507
000250 28 9a d6 3d 83 b1 4f 3d af 76 2a be 74 8b d9 bd
       0.10478622 0.050706398 -0.16646837 -0.10622302
000260 98 a2 55 bd 0a f3 57 3e 15 09 fb bd 53 1d 7b be
       -0.052157015 0.21088806 -0.12257592 -0.24522905
000270 3f 3d d2 bc 57 d4 3e 3e 2a 26 5c be 49 ba b5 bd
       -0.02566397 0.18635689 -0.21498933 -0.08873422
000280 8e 7b b2 3d 19 cd 7c 3d 00 dd 1b 3d 39 41 60 3d
       0.087149724 0.061719034 0.03805256 0.0547497
000290 89 18 3d be dd f0 74 be ca db 8e 3e ed b3 12 be
       -0.1846639 -0.23920007 0.2790206 -0.14326449
0002a0 12 9e af bd 81 0c 09 be 83 12 1f 3e 6e 93 95 3d
       -0.085750714 -0.13383676 0.15534405 0.073035106
0002b0 e4 33 dd 3d 82 77 fb bb 33 67 0b 3e fd a1 fd 3d
       0.10800913 -0.0076741586 0.13613586 0.123844124
0002c0 08 e7 cd bb 09 5e e8 bd 8c d1 0e 3e 47 6d 62 3e
       -0.0062836446 -0.11346061 0.13947123 0.22111998
0002d0 4b b9 c4 3c 6d d9 2f bd ee 55 55 3e d4 d3 eb bd
       0.024014136 -0.042931963 0.20833561 -0.115150124
0002e0 4a e9 f5 bd c5 eb 6f 3d 6a 30 9a 3e f3 10 72 bc
       -0.12007387 0.058574457 0.30115062 -0.014774549
0002f0 89 c8 fa 3d 02 c6 e0 bc 77 3c 62 3e b3 9d 9f bd
       0.1224528 -0.027438167 0.22093378 -0.077937506
000300 34 9a 95 3e a5 ce 60 be 6c 33 4c 3e aa 89 2e 3e
       0.2921921 -0.21953829 0.19941491 0.17044702
000310 51 e2 95 3e 6f ce 41 be 23 f0 e8 bd 4e 39 1f be
       0.29274228 -0.18926404 -0.113739274 -0.15549204
000320 dd fa 45 3e f1 a5 3c be cb a1 d0 bd 0f 04 07 be
       0.19333978 -0.18422677 -0.101871096 -0.13185142
000330 ee 83 0d 3d de 98 2e 3e 6c 47 9e bd d0 d0 6b be
       0.034549646 0.17050502 -0.077284664 -0.23028874
000340 f9 48 05 3e e6 87 b9 3d 1b b3 4c be 52 33 60 3e
       0.13016118 0.09059124 -0.19990198 0.21894577
000350 bf b9 1c be 71 fd 58 be d6 8d a0 bc c6 d5 1b be
       -0.15305232 -0.2119043 -0.019598883 -0.15218267
000360 9f bc ff 3d 39 ad 6d bd 80 7f b1 3e dd 8e 7e 3d
       0.124871485 -0.058026526 0.34667587 0.062147964
000370 2a 63 0a be 86 6d f9 3d 32 ab 01 3e 43 47 38 3e
       -0.1351439 0.12179093 0.12662962 0.17995934
000380 97 44 ef bd 09 ce 80 3d 77 b7 9b be c8 88 8d 3d
       -0.11683004 0.06289298 -0.3041341 0.069108546
000390 cc 86 1a 3e 94 58 86 3a d8 bc 4d be f5 0c 65 bd
       0.15090483 0.0010249787 -0.2009157 -0.05592056
0003a0 78 d7 bb 3d f7 92 5d 3d e1 4e 80 3d a5 b9 15 3d
       0.09171957 0.054095235 0.06265045 0.036553998
0003b0 59 f7 3a be 2a 21 7d be 17 45 22 3e b7 37 20 3e
       -0.18258418 -0.24719682 0.15846668 0.15646254
0003c0 fa 51 54 bc 6e 4d 87 be 9f 22 93 bc 9c 4e 37 be
       -0.012958998 -0.26426262 -0.017960845 -0.17901081
0003d0 5b 17 37 be bd c6 54 3e b8 59 52 3e 0c fd e4 3d
       -0.17880003 0.20778938 0.20542037 0.11181077
0003e0 08 81 e4 bd 5e 53 2c be 6b 94 5e 3e d9 d0 ad 3d
       -0.11157423 -0.16828677 0.21736304 0.084871
0003f0 e8 d9 94 3d a5 a4 47 be a3 1e ab bd 96 34 3e 3d
       0.07268125 -0.194964 -0.08355453 0.04643687

feat_extract.6.bias f4 [20]
000000 67 e2 04 3d 32 ce 02 be 33 6f 6f 3d cc e3 e1 bc
       0.032442477 -0.1277397 0.058455657 -0.027574442
000010 15 c5 f7 3c 7d f3 12 3d af 58 0c 3e 16 3e 5b 3e
       0.030245343 0.03587674 0.13705705 0.21410403
000020 57 5a 7d 3d 82 68 4e be ff 1d 44 be 42 d8 b1 3d
       0.061853733 -0.20157054 -0.19152068 0.08683826
000030 0f 7a 1c 3e 0a b6 fb bd 3a ce 05 3c ef e8 e2 bd
       0.15280937 -0.122905806 0.008166844 -0.11079585
000040 38 e0 b1 3d 77 6f e9 bd 15 88 84 bb 66 ad 63 3e
       0.086853445 -0.11398213 -0.0040445426 0.22234115

feat_extract.8.weight f4 [20, 20]
000000 36 60 97 3d e2 72 49 be 63 9c 20 be 9c d9 7b be
       0.07391398 -0.1967273 -0.15684657 -0.2459473
000010 d6 c5 9f bd 8d a5 d7 bd 58 f3 81 be 4d ad 30 be
       -0.07801406 -0.10529623 -0.2538097 -0.17253609
000020 0d b4 5f 3e 4b ab e9 3d 99 16 ed 3d 29 78 68 be
       0.21846028 0.11409625 0.11576576 -0.22702087
000030 aa 02 de 3d 0c f2 06 3e ec 67 2b 3e 65 0a 13 3e
       0.10840352 0.13178271 0.16738862 0.14359434
000040 ee c8 b2 bd 26 24 d2 bd 30 5d 5f 3c e0 5d 3c bc
       -0.087297305 -0.10260801 0.0136330575 -0.011496991
000050 69 10 77 3e 99 b6 cb 3b bf 6d 1f be 8c 2f 4a 3c
       0.24127354 0.0062168357 -0.15569209 0.012340438
000060 c9 1f a0 be aa fc 8f 3d 98 1f b7 3d 7c 1f 98 3d
       -0.3127425 0.07030614 0.08941573 0.0742788
000070 41 67 8e bc 29 54 05 be 6b 12 18 be fd bd 94 3e
       -0.01738322 -0.13020386 -0.14850776 0.290512
000080 f0 7a 60 3c a1 cf b7 be 97 da 9f 3d a0 dd 75 3e
       0.013701186 -0.35900596 0.078053646 0.24010324
000090 7b 01 d4 bd d2 4d 1e 3e c0 33 e3 3d 63 da 24 bd
       -0.10351845 0.15459374 0.11093855 -0.040247332
0000a0 f3 f3 88 3c 8c 5f f2 bd 4f 61 e3 bc f7 b7 94 be
       0.016717887 -0.1183463 -0.027756361 -0.29046604
0000b0 b0 19 84 3e 4a 82 6b be af cb 56 be 50 58 ef bb
       0.25800848 -0.2299892 -0.20976137 -0.007304229
0000c0 e0 9c c2 3d d3 dd 8f bc 12 e8 35 3e 86 f5 2c be
       0.09502578 -0.017561829 0.17764309 -0.16890535
0000d0 49 98 46 3e a6 9c 25 bd b1 6e 26 3e ba d1 84 be
       0.1939403 -0.040432595 0.16253163 -0.2594126
0000e0 41 94 24 3e b2 c2 8b 3b 5a 04 3f be 13 5c 3b 3e
       0.1607218 0.004265153 -0.18654004 0.18296842
0000f0 3d b4 87 bd 4a ea 92 3e 38 ba b8 3d 06 60 a0 3e
       -0.066261746 0.28694373 0.090198934 0.3132326
000100 8f 04 a2 3d cc 95 8b 3e 68 d4 08 3c 92 7f a6 3d
       0.07911026 0.27262723 0.008351423 0.08129801
000110 9b 24 76 3d 39 37 0c 3e 22 e1 af 3d 67 84 01 3e
       0.060093503 0.13692941 0.085878626 0.12648164
000120 ac ab 94 b9 8a 0a ee bb 89 10 f1 3d 83 40 41 3e
       -0.00028356665 -0.00726444 0.11770732 0.18872266
000130 e2 89 bd be ec 9b 38 be 8c 5b c5 3d 25 d8 bd bd
       -0.3701926 -0.1802823 0.09636602 -0.09269742
000140 80 97 d2 3d c1 d5 73 3e 2f 49 75 bc ae 35 59 bd
       0.102828026 0.2381201 -0.014971062 -0.05302971
000150 4c 20 cf bd 96 a2 c4 3d 3e b0 be 3c 28 53 86 3b
       -0.10113582 0.09601323 0.023277398 0.0040992685
000160 53 39 16 be ae 8e a0 be 74 92 4e 3e 13 fc 77 bc
       -0.14670305 -0.31358856 0.20173055 -0.015135783
000170 20 83 28 bc ad c9 1a be b2 cd 82 be b3 77 84 3e
       -0.010285169 -0.15115996 -0.25547558 0.25872573
000180 eb 73 1d be 93 0d 02 be 02 cc 05 be f3 a3 93 bc
       -0.1537625 -0.1270049 -0.13066104 -0.018022513
000190 4e d5 54 3b c1 f4 8d be a5 e4 f2 3d 39 60 42 be
       0.0032475772 -0.27725795 0.11860017 -0.18982019
0001a0 80 45 8f bb 8a 6f 50 be a4 c6 52 bc f5 3c 12 be
       -0.0043722987 -0.20355049 -0.012864742 -0.14281066
0001b0 07 e2 1f be fd 05 27 be b1 3a fe 3d 4b 6b 83 be
       -0.15613566 -0.16310878 0.12413538 -0.25667796
0001c0 97 b1 81 3e 53 78 8b bb cc a8 77 3e c1 61 37 3d
       0.25330803 -0.004256287 0.24185485 0.04477096
0001d0 28 fe 21 3e 66 b4 e9 3d 99 50 16 bc 74 c5 2c 3e
       0.15819609 0.114113614 -0.009174489 0.16872197
0001e0 bb 93 8e 3d 4c 39 cb 3d da 8f 86 3e 55 c7 a2 3d
       0.06961771 0.09923038 0.26281625 0.07948176
0001f0 8d 38 ec bd 61 07 8e 3e d3 61 c3 bb af 30 bf 3d
       -0.11534224 0.27740005 -0.0059625893 0.093354575
000200 6c 0d 3c be df 51 01 bd 3f 05 7c 3e 4e 15 99 3c
       -0.18364495 -0.03157222 0.24611376 0.018686917
000210 c9 5b 16 3d da da d1 bc 38 b9 30 3d fd a9 bc bd
       0.036708627 -0.025617052 0.04314539 -0.0921211
000220 3b af 2f be 9c 64 fd 3d 10 db 62 3e 26 1f 5d 3d
       -0.17156689 0.12372705 0.22153878 0.053984784
000230 9a ca c7 3e c3 ac 24 3d 4b 36 df bd 87 d7 80 3e
       0.3902176 0.04020382 -0.108990274 0.25164434
000240 ec 7d 98 be 1d 39 1f be 43 b1 3e 3e 8b f7 94 3d
       -0.2978357 -0.1554913 0.18622307 0.072737776
000250 9a 8f af be 31 1d 2e bd 85 d8 61 be df 37 b2 3e
       -0.34289247 -0.042508308 -0.22055252 0.3480825
000260 8e 12 73 be 30 4d 9b be 3d 2f 78 3d e3 0e 9b 3e
       -0.23737547 -0.30332327 0.060591925 0.30284795
000270 75 e5 1b 3e 42 c8 11 3e 81 c2 90 3d 3c a3 2f bd
       0.1522425 0.14236549 0.07068349 -0.04288028
000280 96 b0 9b 3e b8 f8 cb ba bc bc 58 3e fd b6 bd 3e
       0.30408162 -0.0015561795 0.21165746 0.3705367
000290 09 4b 3e be cb 3c d9 bd d0 87 b4 3e e3 c6 9c 3d
       -0.18583311 -0.106072985 0.35259867 0.07655122
0002a0 5b 41 b0 3c 6b c4 a3 3d 95 0c 9e bd a0 4f 04 3e
       0.021515539 0.07996448 -0.077172436 0.12921
0002b0 99 4f 05 be 0c 6a 59 be 62 95 88 be 18 50 7d 3e
       -0.13018645 -0.2123186 -0.2667647 0.24737585
0002c0 fc 65 1d be 09 e4 e8 bd 3f e8 19 3e 46 6c 9a 3d
       -0.15370935 -0.11371619 0.15030001 0.07540183
0002d0 58 a1 53 3e 47 97 90 bd a4 d9 3c be e5 84 a0 3c
       0.20667017 -0.07060104 -0.18442398 0.019594619
0002e0 12 17 98 3d 32 d6 90 be 25 c6 4e be 14 c9 1c 3e
       0.07426275 -0.28288418 -0.20192774 0.1531108
0002f0 63 6d 17 3e 50 c3 53 3e e3 93 6d be fa 27 04 be
       0.14787821 0.20679975 -0.23200946 -0.12905875
000300 26 c5 35 be 27 af 55 3e b5 89 b8 3d ee 68 94 bd
       -0.17750987 0.20867597 0.090106405 -0.07246576
000310 84 1a 5c 3e 34 f8 7a 3e c3 33 e0 bd 93 91 71 3e
       0.2149449 0.24508744 -0.10947373 0.23590688
000320 51 b1 17 3e 6a 52 e9 bd 78 46 90 bd 71 db 30 bd
       0.14813735 -0.11392672 -0.07044691 -0.043178026
000330 ff 04 5f be fd 36 f2 bc 2e 58 93 3d f1 ee e9 bd
       -0.2177925 -0.029567236 0.07194553 -0.114225276
000340 3c 99 8f bc 32 0b 68 bd 5b fd c6 3d f7 0d 12 bd
       -0.017529123 -0.0566513 0.097162925 -0.03565785
000350 5a 22 58 3d 3c ee 6d bb 74 84 6b 3e f5 e1 05 3e
       0.052767135 -0.0036305329 0.22999746 0.13074477
000360 ad 23 2d be 1a d7 00 be be be 18 be ac ea 4d 3c
       -0.1690814 -0.12582055 -0.14916512 0.012568157
000370 a1 bd 66 bd 6b 29 a1 be 6f 0e 88 3d 2f 3c b6 bd
       -0.056333188 -0.31476912 0.06643378 -0.08898198
000380 d9 33 4e 3d 12 ae 1e 3e a2 ac 06 bd aa 27 37 3e
       0.050342415 0.1549609 -0.03287948 0.17886224
000390 96 93 8f be e0 2a 8f bd ba ab 09 be ab 8b cf bd
       -0.28042287 -0.069906 -0.13444415 -0.101340614
0003a0 cd 18 94 bd bc a2 b5 3c 00 86 86 3d fa 8f 83 3d
       -0.07231293 0.022172324 0.06568527 0.06423946
0003b0 32 1d 35 3e 51 be 05 3e c3 02 2c be 9e b8 eb bc
       0.17686918 0.13060881 -0.16797929 -0.028774556
0003c0 4e 75 2d be f1 08 fb bd 59 86 4a 3e 85 89 4e 3e
       -0.1693928 -0.12257565 0.19777812 0.20169647
0003d0 15 b5 0c 3e 49 21 4c bd 2c 8e 77 3e a2 3c 16 3d
       0.13740952 -0.04983643 0.24175328 0.036678918
0003e0 49 09 15 bd db 60 6a be fa d2 19 be 5a 1d dc bd
       -0.03638581 -0.2288851 -0.15021887 -0.10747786
0003f0 8f b0 ff bd c1 52 ad 3d 42 6f 80 3e 34 02 25 3e
       -0.12484848 0.0846305 0.25084883 0.16114122

feat_extract.8.bias f4 [20]
000000 be 07 85 3c 00 ee 0a 3e 06 3b 3f be d0 67 89 3d
       0.016239043 0.13567352 -0.1867486 0.06709254
000010 b9 a1 e5 ba 9d 7f c3 bd 5c 6d 08 be 7a 07 a3 bd
       -0.0017519511 -0.09545825 -0.13322967 -0.079604104
000020 90 d9 c9 3d 3e 8a 62 bd ca 3e 3e 3e 43 d5 0c 3e
       0.0985595 -0.05530762 0.1857864 0.13753228
000030 be 2e 78 bd 23 0e 0a be 85 24 1c be c2 f4 19 3c
       -0.06059145 -0.13481955 -0.15248306 0.009396734
000040 48 c1 01 3d 3f 65 25 bd 36 1f 26 be 29 7b d8 ba
       0.031678468 -0.04037976 -0.16222844 -0.0016516197

encoder_layers.0.attn.linears.0.weight f4 [20, 20]
000000 06 3f c5 bb eb 53 cb 3c 43 ce c3 3d 37 6a 46 bd
       -0.006019476 0.024820289 0.09560826 -0.048441138
000010 eb b1 89 be f7 d0 63 be 95 e6 3a 3c dc bd ff 3d
       -0.26893553 -0.22247683 0.011407514 0.12487385
000020 8f 7c c4 bd a0 1c 81 be fb 69 b8 3c 24 06 76 be
       -0.0959407 -0.25217152 0.022511473 -0.2402578
000030 2f 7e ef 3c 0d 67 54 3e e1 64 51 3b 40 c5 48 be
       0.029234974 0.20742436 0.0031950998 -0.19606495
000040 b4 1f 93 be 9a 8c 48 be 96 d3 bc 3e ab eb 56 3c
       -0.28735125 -0.19584885 0.36880177 0.013117711
000050 97 78 00 bd b1 0d 15 be bd 25 38 3e 32 ca 87 3c
       -0.031365003 -0.14556004 0.17983146 0.016575906
000060 24 b5 85 bc a1 28 a2 bd 18 78 15 3e ec 1c 43 be
       -0.016321726 -0.079179056 0.14596593 -0.19054002
000070 d0 1e 79 be 83 5e 8d bd c7 a2 a6 be cc 8b 82 3d
       -0.2432816 -0.06902792 -0.32546064 0.063743204
000080 97 fa 0a bd 5b 9b 54 3e 82 00 22 be b1 e0 8c 3d
       -0.033930387 0.20762388 -0.15820506 0.06878794
000090 c7 a8 65 be 05 9c 68 3d b7 e8 f4 3d 89 33 72 be
       -0.22427665 0.056789417 0.11958449 -0.23652472
0000a0 89 1b b7 bd e9 35 e3 3d 46 7d 52 be b5 80 77 be
       -0.08940799 0.11094267 -0.205556 -0.24170192
0000b0 c1 44 ee bd 9f 70 01 3e bc 17 79 be f9 ae b8 bc
       -0.116342075 0.12640618 -0.2432546 -0.022544371
0000c0 88 21 6a 3e db 86 85 3e 92 b0 44 bd f4 f0 e2 3d
       0.22864354 0.2607945 -0.048019953 0.110811144
0000d0 24 7a 6e be aa 1a d3 bd a8 8c d8 3d 65 e8 ab 3e
       -0.2328878 -0.1030782 0.10573703 0.3357574
0000e0 1d 38 8e 3c 59 67 0e 3d 88 55 8c 3d f6 3f 4a be
       0.017360741 0.03476653 0.06852251 -0.19750962
0000f0 c4 7e 87 3d 4a 9c 01 be b9 0a 00 3e 0a d4 90 3a
       0.066159755 -0.12657276 0.1250409 0.0011049521
000100 05 46 c6 3c fd 67 ac bd 49 f9 14 3d 06 a4 29 3e
       0.02420331 -0.08418272 0.03637055 0.16566476
000110 2c 03 32 3e 84 14 59 3e 17 e8 3f 3e 5a 8b d5 bd
       0.17384022 0.21199232 0.18740879 -0.1042697
000120 9e 70 03 be 8b 81 04 be 19 08 08 3d 4b 10 6f bd
       -0.12835929 -0.12940042 0.033210848 -0.058365148
000130 b5 17 2b 3e 28 fa 4f 3e 14 b1 92 be d3 ba 59 3e
       0.16708262 0.20310271 -0.28650725 0.21262674
000140 71 1e 9d 3d 4d 51 99 3e 71 90 a0 3d fe 01 34 3d
       0.07671822 0.2994484 0.0784005 0.043947212
000150 86 14 c4 3d 0c b3 aa 3d 6a 9b bf 3d fc d8 88 3d
       0.09574227 0.08334932 0.09355815 0.066820115
000160 1a d5 2f 3c 91 a8 2c 3e 6b 27 b3 3e b6 fe a2 3e
       0.01073196 0.16861178 0.3499101 0.31834954
000170 ca 5a 70 bd d2 70 25 be ae a3 1b 3e 6f 09 4a 3e
       -0.058680333 -0.16156319 0.15199158 0.19730161
000180 6c 33 7c bd 64 20 38 bd 75 3f 99 be 09 38 ad 3d
       -0.061572477 -0.044952765 -0.29931226 0.084579535
000190 dd 05 28 3e ed 81 0e be c4 3b 9b bd 74 6d d5 3d
       0.16408487 -0.1391675 -0.07579759 0.10421267
0001a0 d3 af 03 be 9c 84 13 3e fa d5 fe 3a 76 02 37 bd
       -0.1286004 0.14406055 0.0019442432 -0.04468008
0001b0 16 fe 1f 3e 74 22 6e be 17 c6 4c be eb 83 bb 3d
       0.1562427 -0.2325533 -0.1999744 0.09156021
0001c0 b7 27 a7 bd 9b 4f 64 3e 8c ac 34 be 84 58 dd 3d
       -0.08161872 0.22295992 -0.17643946 0.10807899
0001d0 ca d8 60 be 1e 64 c4 bc d8 f6 37 3e af d8 fd bd
       -0.21957698 -0.02397352 0.17965257 -0.12394845
0001e0 43 d4 0e bd 16 01 a8 be 1f 12 04 be b8 66 08 be
       -0.034870397 -0.32813329 -0.12897538 -0.13320434
0001f0 33 a5 0f 3e 71 8d 71 be a3 a0 7f 3e ee 60 cf bd
       0.14027862 -0.23589112 0.24963622 -0.1012591
000200 55 05 6b be cb d5 81 be cf 54 12 be 3c e9 94 be
       -0.22951253 -0.25358424 -0.14290164 -0.29084194
000210 0f 23 81 3e ed f4 01 be 5e a3 20 3e f3 21 4c bd
       0.2522206 -0.12691088 0.1568732 -0.049837064
000220 47 bf 72 3c a9 be 84 3b b7 e7 ef 3d 95 dd 4d be
       0.014816112 0.004051049 0.11714118 -0.20104058
000230 0c 22 f0 bd a0 fc 8e 3e 4a 74 47 3c ba 7b 1a 3e
       -0.11725244 0.27927113 0.012173722 0.1508626
000240 84 2a cd 3d 06 0f 6a 3d c1 d4 6e be d4 41 df 3d
       0.10017875 0.057143234 -0.23323347 0.109012276
000250 5b 27 c1 bd ad fe fd bd d7 2f 31 3e db 09 79 3e
       -0.094313346 -0.12402091 0.17303406 0.24320166
000260 f2 09 34 be 8f 52 de bd 4d 5b 2d bd f3 9c 9d 3d
       -0.17581919 -0.108555906 -0.0423234 0.07695951
000270 a0 6a ed 3b 57 fb a4 3d 19 00 75 be fc 54 0f 3e
       0.0072453767 0.08055752 -0.23925819 0.13997263
000280 34 1e 14 3e 51 b9 9a bc 64 70 0d 3e d5 1e e6 3d
       0.14464647 -0.018887194 0.13812405 0.112363495
000290 80 27 0e be ce 3a d6 bc 43 06 6f be 0d c3 ef 3d
       -0.13882256 -0.026151087 -0.23342232 0.11707125
0002a0 21 0f 67 3e e4 58 a2 bc 34 90 98 3d f5 cf ef 3d
       0.22564365 -0.019817777 0.074493796 0.117095865
0002b0 8f 82 17 3c 96 3d 20 3e 67 99 3c be 86 ca 80 bd
       0.009247436 0.15648493 -0.18417893 -0.06288628
0002c0 40 f6 96 bd f4 50 5f be 03 51 09 be b8 37 9d bc
       -0.07371187 -0.21808225 -0.1340981 -0.019191608
0002d0 65 3a 74 bd bf c6 44 be 83 7d dc 3d 1d b4 b3 3e
       -0.059626002 -0.1921644 0.10766127 0.35098353
0002e0 95 69 b3 bd 9c 7d 00 bd 95 65 96 3e ff be 62 be
       -0.087603725 -0.03136979 0.29374376 -0.22143172
0002f0 41 53 2e be 14 f7 87 3d b5 21 10 be e6 da 50 be
       -0.17023946 0.06638923 -0.14075358 -0.20396003
000300 e6 2d b7 bd 10 8b 0e 3e 66 12 18 3e 3e d2 e9 bd
       -0.08944301 0.13920236 0.14850768 -0.11417054
000310 aa b9 35 be 7e 2a a4 be c1 7b 57 3e fa 16 96 3d
       -0.17746606 -0.3206367 0.21043302 0.07328601
000320 b8 0d cd 3d 0c 0a 50 be fd 5a 30 3e 55 ca 27 3e
       0.10012382 -0.20316333 0.1722221 0.16385777
000330 9a bf 46 be 30 33 0f 3e 07 bb aa 3d d3 9c dd bd
       -0.19409028 0.1398437 0.08336454 -0.108209275
000340 b6 c9 fe bd 08 b7 07 be 75 b2 6c 3d b9 7b ac bd
       -0.12440817 -0.13253415 0.057787377 -0.08422036
000350 84 4b 6e 3e 38 96 6b 3e 67 82 52 3d 38 3a ec bd
       0.23270994 0.23006523 0.051393893 -0.11534542
000360 b4 d2 8c bd 5e 83 01 3e c3 8f 11 3e 3b ab 4b be
       -0.06876126 0.12647769 0.14214997 -0.19889538
000370 7e c5 b1 3d 33 b8 d2 3d fd 2c 50 3e b8 50 ce bd
       0.08680247 0.102890395 0.20329662 -0.1007399
000380 fc 24 02 bc 46 e3 0e bd 54 9d 02 3e d4 84 a1 3c
       -0.007943388 -0.034884714 0.12755328 0.019716658
000390 81 dd e9 bd f7 fb cb 3d 7f c6 ad 3d 89 b5 8e 3c
       -0.11419202 0.09960168 0.08485126 0.017420547
0003a0 77 17 4c 3e 92 69 e9 bc 73 77 48 3e 81 93 35 3d
       0.19930826 -0.028492723 0.19576816 0.044330124
0003b0 be cf aa 3d 1f 02 68 3e ef d1 ae bd 4a ad fd bd
       0.08340405 0.22657059 -0.085361354 -0.12386568
0003c0 c9 fd 21 3e 62 f9 f2 bd f4 fe e7 bd 32 00 de bd
       0.15819468 -0.11863972 -0.11327925 -0.10839881
0003d0 09 f2 02 3e 6b 7a 75 be c4 33 34 3e 97 aa 87 be
       0.12787642 -0.2397248 0.17597872 -0.26497337
0003e0 e6 31 df 3d 58 62 06 3e c2 3e be 3c 91 16 8b be
       0.10898189 0.13123453 0.023223285 -0.27165654
0003f0 1e c1 11 3e 15 54 6f 3d ee f1 d5 3d cf b9 82 be
       0.14233825 0.058429796 0.10446535 -0.25532386

encoder_layers.0.attn.linears.0.bias f4 [20]
000000 de 5d 77 bd 22 39 8e be 6a 75 ba 3d 00 77 6a 3c
       -0.060392253 -0.27777964 0.09104426 0.014310598
000010 2d 13 6e 3e 21 7f 0a be 70 9c d7 bd 99 9f a0 3e
       0.23249502 -0.13525058 -0.10527885 0.31371763
000020 1b f4 8a 3e 23 e7 8b be 58 ec d1 bd 76 12 03 be
       0.27139363 -0.2732478 -0.10250157 -0.12800011
000030 80 77 71 be b4 f4 20 3c 79 2c 33 3d 36 15 9c 3c
       -0.23580742 0.009823967 0.043743584 0.019053083
000040 2a 09 70 3e b3 93 ba 3e 32 38 6b 3e b6 73 39 bd
       0.23440996 0.3644081 0.22970656 -0.045276366

encoder_layers.0.attn.linears.1.weight f4 [20, 20]
000000 bc ac e3 3d 7d f3 68 3d 31 82 0b 3e b0 c6 51 3e
       0.11116931 0.056872834 0.13623883 0.2048595
000010 e4 af 6f bb 52 0e b1 bd 66 29 a0 3e a4 57 04 be
       -0.0036573345 -0.086453095 0.31281585 -0.12924057
000020 3e 10 59 be e7 ee 15 be 2a 6a 15 be 59 3c b9 bd
       -0.21197602 -0.14641915 -0.1459128 -0.090447135
000030 36 2d 82 3e 2f 21 9b bd af b7 34 3e 38 36 02 3c
       0.25425118 -0.07574689 0.17648195 0.007947497
000040 a9 cb e2 3d 25 3c 4d be 5b 02 86 bd 16 bd 91 bd
       0.11074001 -0.20042475 -0.06543418 -0.071161434
000050 e9 36 27 be 19 d3 4f be 33 80 68 3e 06 3e bc 3d
       -0.1632954 -0.20295371 0.22705154 0.091915175
000060 d4 1a 8b be be 29 fc bd da b4 43 3d da 3d db 3c
       -0.27168906 -0.12312649 0.047779895 0.026762892
000070 ca ac 44 be 64 63 5e be aa 7d 00 be ee d9 21 be
       -0.19206539 -0.21717602 -0.12547937 -0.1580579
000080 31 57 94 3e 3c 8d bf 3d a5 b5 f9 bc 69 19 73 bd
       0.28972772 0.0935311 -0.030482123 -0.059350405
000090 29 01 c9 3c 2a 42 99 ba 04 76 92 3d 34 ad 9e 3b
       0.024536686 -0.0011692692 0.07151416 0.0048424248
0000a0 60 59 a9 bc d4 19 97 3d 3d da a3 bb 8f be 72 be
       -0.0206725 0.07377973 -0.0050003813 -0.23705505
0000b0 68 35 28 3e 1e a7 65 3e db 7f 4c be ed 45 a0 3e
       0.16426623 0.22427031 -0.19970648 0.3130335
0000c0 77 e2 45 3e d5 cd cc 3b 7d 43 65 3e 18 5b 21 be
       0.1932467 0.006250123 0.22389026 -0.15757406
0000d0 a8 40 b3 3d 63 47 da bd f8 15 48 bd a4 7a c5 3a
       0.087525666 -0.10658147 -0.048849076 0.0015066457
0000e0 79 b6 10 3c 2f b8 69 3e af 42 54 be 70 8d 2f 3e
       0.008832567 0.22824167 -0.20728563 0.17143798
0000f0 a8 0d 10 be 9d fa ee 3d 98 84 2c 3d 5b bd 0c be
       -0.1406771 0.116688944 0.04211864 -0.13744108
000100 0d 52 37 be ac ab 4e 3d 13 48 db 3d 46 32 63 3e
       -0.17902394 0.050456688 0.107071064 0.22187147
000110 dd 46 e1 bc ad a6 b3 3b 39 d0 4c 3c 84 9f 8f bd
       -0.02749961 0.005482516 0.012500816 -0.07012847
000120 86 13 2f be b9 07 30 3e 82 94 b4 3d 23 73 82 3d
       -0.17097291 0.17190446 0.08817388 0.06369617
000130 69 f2 25 3e 9b bb 47 3e e9 9b 0f 3e e2 45 89 bd
       0.16205753 0.1950516 0.14024319 -0.06702782
000140 d0 ce 47 3e 3a d7 7e bd 44 ad c3 bb 0a 76 c1 bd
       0.19512486 -0.062216975 -0.0059715826 -0.09446342
000150 8a bc c3 3d c3 9d 1d bb 19 e9 85 be fb ee a4 3e
       0.09557445 -0.0024050332 -0.26154402 0.32213578
000160 a3 f1 2c 3d 8b c5 97 ba c6 ef 3a bd bc 20 d1 3c
       0.04222263 -0.0011579258 -0.045638822 0.025528304
000170 32 d9 29 bd d0 7c 71 3d 26 6f 21 be 60 f0 bb bd
       -0.0414669 0.05895692 -0.15765056 -0.09176707
000180 2a b3 c7 3d fa 2a 70 3e 16 16 b0 3d e3 ee 85 3b
       0.0975097 0.23453894 0.085979626 0.0040873154
000190 32 af cf bd c8 46 bd 3d 60 7b 26 be 62 3b 90 3d
       -0.10140838 0.09242016 -0.16258001 0.070425764
0001a0 25 d0 e2 3d 07 b0 5c 3e 27 89 cb 3d 4e 1c 44 be
       0.11074857 0.21551524 0.09938269 -0.19151422
0001b0 6c 19 9d 3c 07 9e 42 be 58 3d 22 3d a7 56 75 3e
       0.019177161 -0.19005595 0.039609283 0.23958836
0001c0 91 5e 97 3d 40 34 fc bd 97 cc d7 3c 94 72 2e 3d
       0.07391084 -0.123146534 0.026342673 0.04258974
0001d0 23 29 25 be c1 59 e1 bd 39 f5 8f 3a dc a9 b7 3c
       -0.16128974 -0.11003447 0.0010983116 0.022419862
0001e0 cf cc 33 3e 27 c7 b5 bd ad 9c 85 3d 47 ae f7 3d
       0.17558597 -0.08875876 0.06524024 0.12093788
0001f0 84 3a cc bd 61 9b e1 bc d8 74 a5 3d 31 a0 cd bd
       -0.099720985 -0.02753991 0.08078927 -0.1004032
000200 7d 0b 82 be 98 a1 7b be 17 56 29 3d 70 56 07 be
       -0.2539939 -0.24573362 0.041341867 -0.13216567
000210 3b 82 9d 3e c3 6c a2 bd c0 cb f2 3c 50 c3 d8 3d
       0.3076342 -0.07930901 0.029638171 0.10584128
000220 a9 9c 8e 3a 19 6d 0c be a7 c4 67 be 7a 53 b1 3d
       0.0010880429 -0.13713492 -0.2263361 0.086585
000230 80 7e 2c 3e d4 17 7f 3e 63 a7 63 bd e8 7d d1 bb
       0.16845131 0.24911433 -0.055579554 -0.006393183
000240 a8 fe 78 bd 86 fc 9f bd c3 63 c6 3d 29 eb 43 3e
       -0.060789734 -0.07811837 0.09686997 0.19132675
000250 88 4a c7 3d 23 c1 bc 3d 69 dc f8 bd b8 7a ff bd
       0.097310126 0.092165254 -0.12151415 -0.124745786
000260 da 63 40 be 50 e8 8f bd ed a2 dd 3c 4b 6f 24 3d
       -0.1878809 -0.07026732 0.027055228 0.0401452
000270 d3 30 d2 3c 74 7e 8c 3d aa c2 b5 bd 7a 59 43 3e
       0.025658047 0.068600565 -0.0887502 0.19077101
000280 5f 50 8e 3d 3b 18 a1 3e c7 30 3f 3e cf c3 67 be
       0.06948923 0.314638 0.18670951 -0.22633289
000290 23 a1 ed bb 40 1e fa bd dc 3f 58 3d ad 9c 04 3e
       -0.007251875 -0.12212801 0.052795276 0.12950392
0002a0 8f 51 71 3e 43 24 4b 3e 23 b7 2c 3e 23 7b 9e 3d
       0.23566268 0.19838051 0.16866736 0.0773833
0002b0 cf d7 6d 3c 30 a0 79 bb bc c8 f1 3d 68 ef ca bd
       0.014516785 -0.0038089864 0.11805865 -0.09908944
0002c0 6d 5e 40 3d 53 f0 f3 bd 69 11 39 be 07 2c fc bc
       0.04696505 -0.119110726 -0.18073048 -0.030782713
0002d0 c8 95 c4 bd 14 bf 83 be 5a 17 26 be 0c 31 59 3b
       -0.09598881 -0.2573172 -0.16219845 0.0033140806
0002e0 1a 4b e6 3d 94 c0 b4 bd 94 bb 36 3e 33 33 58 be
       0.11244793 -0.08825794 0.17844993 -0.21113281
0002f0 e2 cb 7d be 33 e3 16 3e f6 fb fd bd 46 90 9e bd
       -0.24784806 0.14735107 -0.12401573 -0.07742362
000300 92 85 aa 3d e1 70 f8 3b 63 49 e4 bd 2c b0 1a be
       0.08326258 0.0075818156 -0.1114681 -0.15106267
000310 cf 70 70 be d5 db e2 bd db 32 f8 3d 33 ba 6f be
       -0.23480533 -0.11077086 0.12119075 -0.23410873
000320 94 5c c5 3d 16 ee 0e be 0e 78 98 3d 97 2f d1 3d
       0.096367985 -0.1395801 0.074447736 0.10214155
000330 ca 6d 95 bd b5 ca af 3d e1 15 4f 3d 1a 04 01 3e
       -0.07296331 0.08583585 0.050557975 0.12599221
000340 4c 28 45 3d ca bb a5 bd 03 9b 91 3d 9b 93 61 3e
       0.048134133 -0.080924585 0.07109644 0.22028963
000350 b0 81 56 3d a8 8c 71 3e 70 0e a3 bd a0 03 46 3c
       0.052369773 0.23588812 -0.07961738 0.012085825
000360 cb 8c 0f be 6d 7a 51 be 35 bb 3f 3b 80 5c 8a bd
       -0.14018552 -0.20456858 0.0029255871 -0.06755924
000370 65 6d ed bd 17 1a ea bc ba 4d 69 bd 5b 6a d8 bd
       -0.11593131 -0.028576894 -0.05695889 -0.10567161
000380 c9 23 04 3e 86 1d 19 be 07 22 7b bd c6 e9 7a 3d
       0.12904276 -0.14952669 -0.061311748 0.0612581
000390 70 e9 1f bd b1 61 48 3d de 1c cc bd ee 6d f7 bd
       -0.039040983 0.04892129 -0.099664435 -0.12081514
0003a0 58 47 32 bd 23 5d 10 3e d6 40 8d 3d f2 8b 66 be
       -0.04352507 0.14098029 0.06897132 -0.22514322
0003b0 36 9f f2 3c e1 2e 5a be 8e af 24 be 3c 84 a4 bd
       0.029616933 -0.21306945 -0.16082594 -0.08033034
0003c0 62 43 b7 bc 0d 20 8d 3d ba eb b5 3d 95 7c d1 3d
       -0.022370998 0.06890879 0.08882852 0.1022884
0003d0 fb 3b 67 be c7 08 63 bd 38 45 b1 bd b1 3e e6 bd
       -0.22581474 -0.055428293 -0.086557806 -0.11242426
0003e0 95 29 41 bd 53 bd 79 be 54 f6 6a 3d 12 d6 6e 3e
       -0.047158796 -0.24388628 0.057363823 0.23323849
0003f0 cb 5d ff bd 31 ba 35 3e 31 04 b5 bd c2 42 93 bd
       -0.124690615 0.17746808 -0.0883869 -0.071904674

encoder_layers.0.attn.linears.1.bias f4 [20]
000000 39 7b 3a 3e 0d 99 90 3e 04 72 85 be eb c3 09 3d
       0.18211068 0.28241768 -0.2606355 0.033634108
000010 e2 0f 01 be 58 51 a0 3e bf 91 b5 3d 55 c1 d0 bd
       -0.12603715 0.3131206 0.088656895 -0.10193125
000020 18 ab c0 3d 86 33 ae 3e d0 21 68 3e 6a 01 b4 3d
       0.094076335 0.34023684 0.22669148 0.08789332
000030 35 42 0e bd 82 5a 3a be 7b 94 28 bd 68 33 b8 bd
       -0.03473111 -0.18198588 -0.041157227 -0.0899418
000040 e9 7a 85 be e6 2c 1d be 29 d2 9f 3d 1c b0 45 3e
       -0.26070336 -0.15349159 0.07803757 0.19305462
