net_adam_galerkin.pt (torch, 316579 bytes, 69 tensors)

feat_extract.0.weight f4 [64, 2]
0	0x3f921a29	1.1414233
1	0x3e89bc56	0.269015
2	0xbf77d4a2	-0.96808827
3	0xbeb839dd	-0.35981646
4	0xbf12564d	-0.57162935
5	0x3d7c08d4	0.061531857
6	0x3eddceab	0.43321738
7	0x3ec4d381	0.38442615
8	0x3f67ce37	0.90549034
9	0xbeb927f6	-0.361633
10	0xbec63dcb	-0.3871902
11	0xbeb097d0	-0.34490824
12	0xbf65e44c	-0.8980148
13	0x3f0a7c53	0.54095954
14	0xbf4dab9c	-0.8033998
15	0x3f22ec19	0.63641506
16	0xbd71be24	-0.059019223
17	0x3ef72f7d	0.48278418
18	0xbe9baefd	-0.30406943
19	0xbd9a5d5f	-0.075373404
20	0xbd9fd6d6	-0.078046486
21	0xbc12377b	-0.00892436
22	0xbee45ddb	-0.44602856
23	0xbead0a21	-0.3379679
24	0x3f3294eb	0.6975848
25	0x3ef487b7	0.47759792
26	0xbefe0471	-0.49612764
27	0xbe7a5cdf	-0.2444949
28	0xbf0b14e8	-0.54328775
29	0x3e69ba69	0.22825016
30	0xbf487a07	-0.783112
31	0xbd3c156d	-0.04591887
32	0x3d29d028	0.04145828
33	0x3e507518	0.20357168
34	0x3f909d27	1.1297959
35	0xbd020946	-0.031747125
36	0xbf654d44	-0.89571023
37	0x3ca14dee	0.01969048
38	0xbf81415c	-1.0098071
39	0xbe895446	-0.26822108
40	0xbf600990	-0.8751459
41	0x3ed3ea63	0.4138976
42	0x3ea4fe86	0.32225436
43	0x3ef0a847	0.47003385
44	0xbf87a9ac	-1.0598655
45	0x3f286262	0.6577512
46	0xbf38fff8	-0.7226558
47	0x3ec14b08	0.37752557
48	0xbf70ae6a	-0.94016135
49	0xbea39b80	-0.31954575
50	0x3f99890f	1.1994952
51	0xbeac0593	-0.33598003
52	0x3ebc76ef	0.3680949
53	0xbf3f3ed6	-0.74705255
54	0x3f4527ea	0.7701403
55	0xbe91e2ab	-0.28493246
56	0x3f355eb9	0.7084766
57	0x3efbd1b4	0.49183428
58	0xbf4e2833	-0.8053009
59	0x3ed64b12	0.4185415
60	0xbf4e2460	-0.80524254
61	0xbdd1caa2	-0.10243727
62	0xbea9087e	-0.33014292
63	0x3ed5c4a7	0.41751596
64	0x3ecb64d2	0.39725357
65	0x3e944fb9	0.28967074
66	0x3e7aaa28	0.24478972
67	0xbebc5f2b	-0.36791357
68	0x3f6eefca	0.9333464
69	0x3e4e6815	0.20156892
70	0x3f7a8cec	0.9787128
71	0x3d2ef9de	0.04271876
72	0x3f6d640a	0.9273077
73	0xbef2ff23	-0.4746028
74	0x3f0eb546	0.5574535
75	0x3e68be02	0.22728732
76	0x3f5f6bbc	0.87273765
77	0x3c205f6e	0.009788377
78	0xbf711a0d	-0.94180375
79	0xbedd6d50	-0.4324746
80	0xbf5616b2	-0.8362838
81	0x3f000952	0.5001422
82	0x3ef02cd7	0.4690921
83	0x3f206874	0.6265938
84	0xbf082f11	-0.5319682
85	0xbee014e5	-0.4376594
86	0x3eb8fab0	0.3612876
87	0xbf256515	-0.64607364
88	0x3e3a1799	0.18173064
89	0x3ed98fa0	0.4249239
90	0x3f8cdba5	1.100453
91	0x3da240f6	0.079225466
92	0x3fa71180	1.3052216
93	0x3e3dd639	0.1853875
94	0x3f499f6f	0.787589
95	0x3f1e53d3	0.61846656
96	0x3f310ef2	0.6916343
97	0xbe365e5e	-0.17809436
98	0xbf53687c	-0.82581306
99	0xbf18a62f	-0.59628576
100	0x3df9e06a	0.12201007
101	0x3ecc0687	0.3984873
102	0xbe11ddb5	-0.14244731
103	0x3eff1527	0.49820825
104	0xbe64424a	-0.22290912
105	0x3dd25b45	0.102713145
106	0x3e25307b	0.16131775
107	0xbe848673	-0.25883827
108	0x3f371449	0.7151533
109	0x3ed495c4	0.41520512
110	0xbf63e7fb	-0.8902585
111	0x3dcf44d5	0.101205505
112	0xbf6f5c5c	-0.93500304
113	0x3f211f7c	0.62938666
114	0x3db329af	0.08748185
115	0x3e53ac89	0.20671286
116	0xbee4409e	-0.4458055
117	0x3d903b5c	0.07042572
118	0x3e022539	0.12709512
119	0xbe66119f	-0.2246766
120	0xbf852973	-1.0403274
121	0x3d9ee7ff	0.077590935
122	0xbf34a2a5	-0.70560676
123	0x3de2c124	0.11071995
124	0x3f2ad209	0.6672674
125	0x3d1a8d86	0.037732624
126	0xbf8ac971	-1.0842725
127	0x3ea157b8	0.31512237

feat_extract.0.bias f4 [64]
0	0xbf06e453	-0.52692145
1	0x3f18cfa4	0.59691834
2	0xbf07f885	-0.53113586
3	0xbe6a2906	-0.22867212
4	0x3e28ee3a	0.16497126
5	0x3f2304e9	0.6367937
6	0x3ee22f15	0.44176546
7	0x3e5e2ee8	0.21697581
8	0xbe43cdd8	-0.19121492
9	0x3f0bcfd5	0.54614
10	0xbedd83b3	-0.4326454
11	0xbef29299	-0.4737747
12	0x3eb52dbe	0.3538646
13	0x3f11346c	0.56720614
14	0xbecb9c79	-0.39767817
15	0x3c894b61	0.016759576
16	0x3d1749d8	0.036935657
17	0x3d6953e1	0.05696476
18	0xbe2028b3	-0.15640526
19	0x3ec19caf	0.37814853
20	0xbf18fd89	-0.59761864
21	0x3dd7507d	0.10513399
22	0x3f006b13	0.5016338
23	0x3ed59643	0.41716203
24	0x3dda2565	0.10651664
25	0x3ef92047	0.48657438
26	0x3f137acc	0.5760925
27	0xbece7123	-0.4032069
28	0xbec864d1	-0.39139417
29	0x3f0f5f7d	0.5600508
30	0xbecb8dbd	-0.39756575
31	0xbed81dc6	-0.42210215
32	0xbf0b5a11	-0.54434305
33	0x3ef46734	0.47734988
34	0xbd40acff	-0.047039982
35	0x3f330531	0.69929796
36	0x3dabc665	0.0838745
37	0xbe90fa63	-0.2831603
38	0xbef28c2f	-0.47372577
39	0xbf194920	-0.59877205
40	0xbef21206	-0.47279376
41	0x3f020b7a	0.5079876
42	0xbea548dc	-0.3228215
43	0xbe820885	-0.25397125
44	0x3f1b2060	0.60596275
45	0x3e807f9d	0.2509736
46	0xbe1887f4	-0.14895612
47	0xbcbf5fb4	-0.023361064
48	0x3e73dfdc	0.23815864
49	0x3f11d1a0	0.5696049
50	0xbf047fad	-0.5175732
51	0xbe38b589	-0.18038
52	0x3e100d24	0.14067513
53	0x3f1f4534	0.6221497
54	0xbe9468ee	-0.28986305
55	0x3f05d981	0.5228501
56	0x3bf9e7d3	0.0076265126
57	0xbeb02761	-0.34405044
58	0xbdd543f7	-0.10413354
59	0xbe6127ff	-0.21987914
60	0x3e2bc707	0.16775142
61	0xbec79573	-0.38981208
62	0x3ee2c870	0.44293547
63	0x3ed53ca0	0.41647816

feat_extract.2.weight f4 [64, 64]
0	0x3dc8ee4f	0.09811079
1	0xbe9df2f3	-0.30849418
2	0xbc1b3407	-0.0094728535
3	0x3dd1ed51	0.10250343
4	0x3e594765	0.21218641
5	0xbe0a6b16	-0.13517413
6	0xbe1e0cca	-0.15434566
7	0x3c879b17	0.016553445
8	0x3d5e8101	0.054322246
9	0x3d4105d1	0.047124688
10	0x3de1d1e6	0.11026363
11	0xbc08790a	-0.008329639
12	0x3c28992c	0.010290425
13	0xbe097c7a	-0.1342639
14	0x3d0c54bb	0.034260493
15	0xbe83a1cf	-0.25709388
16	0x3d87284d	0.06599484
17	0x3e960965	0.29304042
18	0xbe304304	-0.17213064
19	0xbead48d7	-0.33844635
20	0xbcf524a5	-0.0299247
21	0x3d914d60	0.07094836
22	0xbe1c408e	-0.15259
23	0x3d1518d2	0.036400624
24	0xbd8f3203	-0.06991961
25	0x3e36904a	0.1782848
26	0x3ba83938	0.005133774
27	0x3dfd4ac6	0.123677775
28	0x3e197c6f	0.14988874
29	0x3cee18ab	0.029064497
30	0xbdd16abe	-0.102254376
31	0xbd4dc5c0	-0.050237417
32	0xbccccbd1	-0.024999531
33	0x3de022c5	0.10944132
34	0x3e40fafc	0.18845743
35	0x3de2dee8	0.11077672
36	0x3dbb6dd0	0.091518044
37	0x3cc35dc3	0.02384842
38	0x3ba76e05	0.005109551
39	0x3ca51dae	0.020155754
40	0xbe2f9e62	-0.17150262
41	0x3d1447c3	0.03620125
42	0xbdfb6845	-0.12275747
43	0xbc14f731	-0.009092138
44	0x3dfc16ab	0.12309011
45	0x3ea59626	0.32341117
46	0x3e822b99	0.25423887
47	0x3db70ac0	0.08937597
48	0x3e99cd46	0.30039424
49	0xbe9b7884	-0.30365384
50	0x3d70ef8d	0.058822203
51	0x3c59c6ef	0.013292058
52	0xbddbc234	-0.10730401
53	0xbd65c377	-0.056094613
54	0x3dc39824	0.09550503
55	0x3c1adfae	0.009452743
56	0xbd28fac8	-0.04125479
57	0x3d3d410f	0.046204623
58	0xbdd2a980	-0.10286236
59	0x3dc22adf	0.09480833
60	0xbe82097a	-0.25397855
61	0xbdd01ea6	-0.10162096
62	0x3e2034db	0.15645163
63	0xbdf79947	-0.12089782
64	0xbb8b2964	-0.0042468775
65	0x3d15941e	0.03651821
66	0xbd9cf776	-0.07664387
67	0xbde12d8d	-0.10995016
68	0x3e8481f6	0.25880402
69	0x3e1dc1ad	0.15405913
70	0xbe11f040	-0.14251804
71	0xbe3fcad6	-0.1872972
72	0xbe322e7b	-0.17400543
73	0x3e3c7fef	0.18408178
74	0xbe45f09b	-0.19330065
75	0xbdad16da	-0.08451624
76	0x3c300449	0.010743209
77	0x3e8331d0	0.2562394
78	0xbdd6889f	-0.10475277
79	0xbe24e932	-0.16104582
80	0xbdb6b1bf	-0.08920621
81	0x3e903022	0.28161722
82	0xbe75bcfe	-0.23997876
83	0x3dfb6cab	0.12276586
84	0xbe8d0be7	-0.27548143
85	0x3dd9548e	0.10611831
86	0xbc990bdb	-0.018682411
87	0xbdcf1fcd	-0.101134874
88	0x3c12698d	0.008936298
89	0x3ea54728	0.3228085
90	0x3ed483ea	0.41506892
91	0x3cbe6470	0.023241252
92	0xbd9ef6b9	-0.07761902
93	0xbd0932e2	-0.03349579
94	0xbe2bcdf7	-0.16777788
95	0xbe7dc778	-0.24783123
96	0xbd187496	-0.03722056
97	0x3eda29a5	0.42609897
98	0x3e135812	0.14389065
99	0x3e878da0	0.2647524
100	0x3e0f0e62	0.1397033
101	0xbc16797b	-0.009184237
102	0xbd6e55e9	-0.0581874
103	0x3cef7c52	0.029234085
104	0xbef86093	-0.4851118
105	0x3d093bd7	0.033504333
106	0xbdd6f957	-0.104967766
107	0x3e013bab	0.12620418
108	0x3e10236f	0.14076017
109	0x3ea52268	0.32252812
110	0x3e02755a	0.12740079
111	0xbd77a53d	-0.060460318
112	0x3f0b9efa	0.54539454
113	0x3e67af33	0.22625427
114	0xbe74c1c0	-0.23902035
115	0xbe194737	-0.14968573
116	0xbd62f87f	-0.055412766
117	0x3de2e25f	0.11078333
118	0xbd8fbe03	-0.07018664
119	0x3d6a38a0	0.057182908
120	0xbe21a368	-0.15784991
121	0xbe73dc11	-0.23814417
122	0xbe87e25f	-0.26539895
123	0xbd568185	-0.052369613
124	0xbe0bba9e	-0.13645408
125	0xbe7ccc67	-0.24687348
126	0x3d36c0e6	0.044617556
127	0xbde2198e	-0.110400304
128	0xbe2e1f82	-0.17004207
129	0x3d89f034	0.06735268
130	0xbddd2a4b	-0.10799082
131	0xbe29b87d	-0.16574283
132	0xbc6b2f3c	-0.014354523
133	0x3e2e2ef6	0.17010102
134	0x3e2eae7d	0.1705875
135	0x3d7bea4b	0.061502736
136	0x3d96e977	0.07368749
137	0x3dc27eee	0.09496866
138	0x3d70369e	0.058645837
139	0x3d09ee85	0.033674736
140	0xbe015bd5	-0.12632687
141	0x3dd53338	0.1041016
142	0x3ce54d63	0.027991002
143	0x3e05b49b	0.13057177
144	0x3b08ed07	0.0020893232
145	0xbe124aec	-0.14286393
146	0x3e231253	0.15924959
147	0x3e01fdcc	0.12694472
148	0x3b90f0c1	0.0044232314
149	0xbd17ef4b	-0.037093442
150	0x3dc9cbcf	0.098533265
151	0x3e3c3004	0.18377692
152	0x3e3d2706	0.18471918
153	0xbe51e8e6	-0.20499
154	0xbe052080	-0.13000679
155	0xbdb5d3c6	-0.08878283
156	0xbe60844e	-0.2192547
157	0x3ded1d33	0.11577835
158	0xbcd38ca7	-0.025823904
159	0x3d7949e2	0.060861476
160	0xbe13c364	-0.14430004
161	0xbd356f7e	-0.04429578
162	0xbe9d469d	-0.30717936
163	0xbd979036	-0.07400553
164	0xbe45d03e	-0.1931772
165	0xbe5b6a95	-0.21427377
166	0xbe0f0cdc	-0.13969749
167	0x3cb0b417	0.021570249
168	0x3e36107c	0.17779726
169	0x3d5c9c59	0.053860042
170	0xbd0bfa3d	-0.034174193
171	0xbe30f8bc	-0.17282385
172	0x3de32e07	0.110927634
173	0xbe90ab31	-0.2825561
174	0xbe7f2e6e	-0.24920055
175	0xba34dc0d	-0.0006899245
176	0xbe51befb	-0.2048301
177	0x3db961db	0.090518676
178	0xbd71580c	-0.05892186
179	0xbd023f2a	-0.03179852
180	0x3e1481ab	0.1450259
181	0xbdb41bf1	-0.08794392
182	0xbe8710fc	-0.26380146
183	0x3e5583a7	0.20851003
184	0x3d4d1a1e	0.050073735
185	0xbe22d920	-0.15903139
186	0x3e244db8	0.16045272
187	0xbd81367a	-0.06309219
188	0x3e0ad9d9	0.13559665
189	0x3dd402d0	0.10352099
190	0xbdebc3be	-0.11511944
191	0x3e0bc210	0.13648248
192	0xbdcc713a	-0.09982534
193	0x3e1cf821	0.15329029
194	0xbc0d877b	-0.008638258
195	0x3d6caf4b	0.05778436
196	0xbc81fc62	-0.015867416
197	0x3b981829	0.004641552
198	0x3db33778	0.08750814
199	0xbd2f7327	-0.042834427
200	0x3d8334b8	0.0640654
201	0xbc30ce60	-0.010791391
202	0x3dec0551	0.115244515
203	0x3dfcacaf	0.12337624
204	0xbdb99041	-0.090607174
205	0xbdb530c1	-0.0884719
206	0x3d8fdf50	0.07025015
207	0x3db0dd8b	0.08636006
208	0xbe07ed7f	-0.13274191
209	0xbe5f86fc	-0.21828836
210	0x3e8fef57	0.2811229
211	0x3e46a434	0.19398576
212	0x3dcf47fb	0.10121151
213	0xbdeeffad	-0.1166986
214	0x3e076fc3	0.13226227
215	0xbde308fa	-0.110856965
216	0x3ddf3ecd	0.1090065
217	0xbeaf3a4d	-0.34224167
218	0xbddca1b9	-0.10773034
219	0x3d9ccd2f	0.07656323
220	0x3daf7887	0.08567911
221	0xbc4a073c	-0.012330826
222	0x3e317a1a	0.17331734
223	0xbd90b6e5	-0.07066134
224	0x3db4a40c	0.08820352
225	0xbe57119c	-0.21002811
226	0xbd454c02	-0.04816819
227	0xbe1a9f6b	-0.15099876
228	0x3d49def9	0.04928491
229	0x3cfa9e27	0.030592991
230	0x3cb93724	0.0226093
231	0x3d6d3d1c	0.057919607
232	0x3e8f13ff	0.27944943
233	0xbdf928fc	-0.1216602
234	0xbcf16cb1	-0.029470773
235	0x3d9a9cc3	0.07549431
236	0xbd5a23ef	-0.053256925
237	0xbdd608e0	-0.104509115
238	0xbe51bff5	-0.20483382
239	0x3c9fb934	0.019497491
240	0xbe13759b	-0.14400332
241	0x3d4491f6	0.04799076
242	0xbd024fdb	-0.031814437
243	0x3dac7511	0.08420766
244	0x3d4ce0dd	0.050019134
245	0xbe09b889	-0.13449301
246	0x3cdb6307	0.026780618
247	0xbd83f310	-0.06442845
248	0xbd980521	-0.07422853
249	0x3d08bbe5	0.033382315
250	0x3e82ed81	0.25571826
251	0x3dafe55b	0.08588668
252	0x3de1e95d	0.11030839
253	0xbb90c997	-0.0044185626
254	0xbe2becc5	-0.16789539
255	0x3dc09086	0.09402566

feat_extract.2.bias f4 [64]
0	0x3ba38236	0.0049898876
1	0x3d02b2c8	0.03190878
2	0x3e253ba9	0.1613604
3	0xbe10b80f	-0.14132713
4	0x3e1e1fad	0.15441771
5	0x3dd7d28b	0.10538205
6	0x3cfbb643	0.030726558
7	0xbdb09a7f	-0.08623218
8	0xbab9eabd	-0.0014184337
9	0x3bea1501	0.007143617
10	0x3ea777c2	0.32708555
11	0x3e1c775f	0.15279911
12	0xbb9d56fa	-0.004801628
13	0xbe2b7228	-0.16742766
14	0x3dcb34b9	0.099221654
15	0x3d9d9d76	0.07696049
16	0xbaf35c22	-0.0018566886
17	0xbd1e730b	-0.038683932
18	0xbddc6588	-0.10761553
19	0x3e24eec3	0.16106705
20	0x3e2d2900	0.16910172
21	0xbe027891	-0.12741305
22	0x3e2b5598	0.1673187
23	0x3db75507	0.089517646
24	0xbdd6902c	-0.10476717
25	0x3d1e1ad9	0.038599823
26	0x3e122099	0.14270248
27	0xbd97b95b	-0.074084006
28	0xbdbf673c	-0.09345862
29	0x3d366fcc	0.04454021
30	0x3d414e66	0.047193907
31	0xbe15427e	-0.14576146
32	0x3cb83817	0.022487683
33	0x3d947465	0.07248763
34	0x3d2997b4	0.04140444
35	0x3e25217d	0.16126056
36	0xbd957f76	-0.07299702
37	0x3e9de32f	0.3083739
38	0xbd15620c	-0.036470458
39	0x3dfc20c6	0.123109385
40	0x3e6a0022	0.22851613
41	0xbe2b9751	-0.16756941
42	0x3d199528	0.037495762
43	0xbd88a5e7	-0.06672268
44	0x3d6c229c	0.057650194
45	0x3c0f4f7a	0.008746976
46	0x3d9d3c74	0.07677546
47	0x3d5c6486	0.053806804
48	0x3d0fed38	0.03513834
49	0xbd9b952b	-0.07596811
50	0xbd888159	-0.06665296
51	0x3e85c9e8	0.26130605
52	0x39c07ec6	0.00036715547
53	0xbdfc31c2	-0.12314178
54	0x3d568c25	0.052379746
55	0x3e0df030	0.13861156
56	0xbc09a789	-0.00840176
57	0xbe331d9c	-0.17491764
58	0xbd0a24b5	-0.033726413
59	0x3df59ef0	0.119932055
60	0x3d4f7c4e	0.050655656
61	0x3c37f22d	0.011227173
62	0xbe221975	-0.15830024
63	0x3dbea87d	0.0930948

feat_extract.4.weight f4 [64, 64]
0	0x3dd09f98	0.1018669
1	0x3cfdf917	0.031002564
2	0xbd9c8e5b	-0.0764434
3	0x3d9ed392	0.077551976
4	0xbcbe7367	-0.023248388
5	0x3bc64a80	0.0060513616
6	0xbc85bfee	-0.01632687
7	0x3d2c174b	0.0420144
8	0xbd97560e	-0.073894605
9	0xbcb02763	-0.021503156
10	0xbd8c9dbb	-0.06866022
11	0xbdb7b938	-0.089708745
12	0xbd2a5ce6	-0.0415925
13	0x3e23fdd9	0.16014804
14	0xbc4a78a3	-0.012357864
15	0xbd19df90	-0.03756672
16	0x3e2fa4d7	0.17152725
17	0x3dbe218e	0.09283744
18	0x3e38e4a4	0.1805597
19	0x3b1303df	0.0022432727
20	0x3ce23963	0.027615255
21	0xbcb560e0	-0.02214092
22	0x3de314fc	0.11087987
23	0x3ba295e2	0.004961715
24	0x3d1b4406	0.03790667
25	0x3ce5bf14	0.028045215
26	0xbcef1ca1	-0.029188456
27	0xbcf47208	-0.02983953
28	0x3e8696a2	0.262868
29	0x3e008c68	0.1255356
30	0xbcee7879	-0.02911018
31	0x3e0a938a	0.13532844
32	0x3c5160e6	0.01277945
33	0xbe106acb	-0.14103238
34	0xbd881e19	-0.06646366
35	0xbdff5bca	-0.12468679
36	0x3d8db48d	0.06919203
37	0xbe59d3f8	-0.21272266
38	0xbd5ef47b	-0.054432373
39	0x3d1a0ab3	0.03760786
40	0xbd16978e	-0.036765628
41	0xbdbab9ce	-0.09117471
42	0xbdb1d819	-0.086837955
43	0x3d5322e6	0.051546954
44	0xbd90e127	-0.070741944
45	0x3db3f707	0.08787351
46	0xbc3599b0	-0.011084005
47	0x3d90d997	0.07072752
48	0xbd7ee236	-0.06222745
49	0x3e43848e	0.19093534
50	0x3e0fde72	0.140497
51	0xbe6494e1	-0.22322418
52	0xbd08d907	-0.0334101
53	0x3e08bcd2	0.13353279
54	0xbc6ca1d5	-0.014442881
55	0x3da816de	0.082074866
56	0x3c5e5fd3	0.013572651
57	0x3e07fe02	0.1328049
58	0x3c2548de	0.010088174
59	0x3d3935ff	0.04521751
60	0xbce0b840	-0.027431607
61	0x3d4660f5	0.04843231
62	0x3e23e1de	0.1600413
63	0x3e14978e	0.14510939
64	0x3e3c5d3e	0.18394944
65	0x3dcd9c61	0.100395925
66	0xbe13f26a	-0.14447942
67	0xbdc0a7b0	-0.09406984
68	0xbb2e4f87	-0.0026597695
69	0xbd95d238	-0.07315487
70	0x3e34a210	0.17639947
71	0xbe36bed8	-0.17846239
72	0xbe416081	-0.1888447
73	0xbe1118dd	-0.14169641
74	0x3e09befc	0.13451761
75	0x3d28e31a	0.041232206
76	0xbe17f1f8	-0.14838398
77	0x3d0d3486	0.03447392
78	0x3dd8980d	0.105758764
79	0x3e84d00b	0.25939974
80	0x3e25cdd2	0.16191795
81	0xbd6e1d35	-0.058133323
82	0xbd3fd041	-0.046829466
83	0x3d23bc6b	0.03997461
84	0x3e0873a8	0.1332537
85	0xbe3f1266	-0.18659362
86	0xbdfe116b	-0.12405666
87	0x3e8dc153	0.27686557
88	0x3df79852	0.120896
89	0xbd7f57e0	-0.062339664
90	0xbd9360b5	-0.0719618
91	0xbe6ff152	-0.234319
92	0xbd2f29f7	-0.04276463
93	0xbdeeecd5	-0.11666266
94	0xbd3e51b5	-0.04646464
95	0xbd7272a9	-0.05919138
96	0x3e24c44b	0.16090505
97	0xbe5a00a3	-0.21289305
98	0x3dba96ec	0.09110817
99	0xbe60ce5e	-0.21953723
100	0x3dbe11dd	0.09280751
101	0x3de58a67	0.11208039
102	0x3dbbc367	0.091681294
103	0xbd29db1a	-0.041468717
104	0x3e4b0abc	0.19828314
105	0xbe423136	-0.18964085
106	0x3e1d8930	0.15384364
107	0xbe270334	-0.16309816
108	0xbdfa53d8	-0.12223023
109	0x3e517d1a	0.20457879
110	0xbe3d7dcf	-0.18505023
111	0x3c7de10c	0.01549555
112	0xbe5d8036	-0.2163094
113	0x3dcd8563	0.10035207
114	0x3cccb1b7	0.024987085
115	0xbd2affbb	-0.04174779
116	0x3dc31dbd	0.095271565
117	0xbdd375a0	-0.103251696
118	0xbd090d8b	-0.03346018
119	0xbd75675d	-0.059913028
120	0xbda97f29	-0.08276207
121	0xbe1e5d85	-0.15465362
122	0xbde40c98	-0.111352146
123	0x3c8e3390	0.017358571
124	0x3e7f606e	0.24939129
125	0xbe0e3ffb	-0.13891594
126	0xbe26145e	-0.16218707
127	0x3e4c1cf1	0.19932915
128	0xbe1b7e87	-0.15184985
129	0xbe37c078	-0.17944515
130	0x3e2a9958	0.16660058
131	0x3dc4d108	0.09610182
132	0x3e4228bc	0.18960851
133	0x3dea772d	0.11448512
134	0x3ccd3b22	0.02505261
135	0x3dc37bbb	0.09545084
136	0x3cab4690	0.02090767
137	0xbdd02059	-0.1016242
138	0x3cdab8a5	0.026699373
139	0xbde5cd2f	-0.11220776
140	0x3ddb5d2f	0.10711133
141	0xbb626315	-0.003454392
142	0x3c8285a6	0.01593287
143	0xbe13796d	-0.14401789
144	0xbc2b34cb	-0.010449599
145	0x3da10fa0	0.07864308
146	0xbe15ddfe	-0.14635465
147	0x3dfe3282	0.12411977
148	0x3ce39236	0.02777968
149	0xbe2d43a8	-0.1692034
150	0xbe01f8d3	-0.12692575
151	0x3c7fe5cb	0.015618752
152	0xbe0830fe	-0.13299939
153	0xb8c599cd	-9.42234e-05
154	0x3e28539d	0.16438146
155	0xbb97fe27	-0.0046384516
156	0xbd73c8c7	-0.059517648
157	0xbe27ae4d	-0.16375084
158	0x3d3d95db	0.04628549
159	0x3d8053f5	0.062660135
160	0xbda2b484	-0.07944587
161	0xbc82c761	-0.015964212
162	0xbba2d6a6	-0.0049694357
163	0x3e07e285	0.13270004
164	0xbc31a3da	-0.010842288
165	0x3e6f4709	0.23366942
166	0xbe75e2fc	-0.24012369
167	0xbd98ced8	-0.07461327
168	0x3dd92d79	0.10604376
169	0x3dcb3608	0.09922415
170	0x3e08b818	0.13351476
171	0xbda52f85	-0.08065704
172	0xbe1f08d9	-0.15530719
173	0xbe3968f3	-0.18106441
174	0x3e3fb8b0	0.18722796
175	0xbdfbd2ce	-0.12296067
176	0xbcc163fd	-0.023607248
177	0xbe74386e	-0.23849651
178	0xbe590b98	-0.21195829
179	0x3bc7c06e	0.0060959375
180	0xbe2f1148	-0.17096436
181	0xbe30781a	-0.17233315
182	0xbce1b1d5	-0.027550617
183	0xbe28d41a	-0.1648716
184	0x3d647b9e	0.055781953
185	0xbdb89676	-0.09013073
186	0x3e52d419	0.20588721
187	0x3dc135af	0.094340675
188	0xbe5e47ae	-0.21707031
189	0xbdff55b1	-0.12467516
190	0x3da12ff0	0.078704715
191	0xbe0409b1	-0.12894322
192	0x3e87e3ad	0.2654089
193	0x3d2f8ed0	0.042860806
194	0xbd59ba1f	-0.053156015
195	0x3d99006b	0.07470783
196	0xbdfe4d57	-0.12417095
197	0xbd73c685	-0.059515495
198	0x3bc208cd	0.0059214593
199	0x3d8f3c8f	0.069939725
200	0x3d8116b2	0.06303157
201	0x3bf9e8a8	0.0076266117
202	0xbd90d11c	-0.070711344
203	0xbda5c3f3	-0.08094015
204	0x3e1d2af1	0.15348412
205	0x3e540963	0.20706706
206	0xbe090900	-0.1338234
207	0x3b8cf0d6	0.004301171
208	0x3dd68a52	0.10475601
209	0xbc6d8955	-0.014498075
210	0x3e64ecf2	0.22356012
211	0xbd8561ef	-0.0651282
212	0xbbd1d6f8	-0.0064038
213	0x3d0b2224	0.033968106
214	0x3e310a06	0.1728898
215	0xbd840763	-0.064467214
216	0x3e7077b8	0.23483169
217	0x3d93f73a	0.07224889
218	0xbc2115a3	-0.009831819
219	0x3e2afc9d	0.16697927
220	0x3db9b3bd	0.090674855
221	0xbd091dc1	-0.03347564
222	0x3e05d7d2	0.1307061
223	0x3e68eced	0.2274663
224	0xbc2fc9b3	-0.010729241
225	0xbdbd3de4	-0.0924032
226	0xbc917ac5	-0.017758736
227	0xbcaf46de	-0.021396097
228	0x3dd43c75	0.10363094
229	0xbe4d28a3	-0.20035033
230	0x3d8934a0	0.066994905
231	0x3d183f2b	0.037169617
232	0xbda14b59	-0.078756995
233	0x3e246ac1	0.16056348
234	0xbe09a029	-0.13440003
235	0x3dccaefc	0.09994313
236	0x3dcc6846	0.09980826
237	0x3d95cf27	0.07314902
238	0xbe2e4f57	-0.17022453
239	0x3e0dc696	0.13845286
240	0x3e3dbdbd	0.1852941
241	0x3e216aeb	0.15763442
242	0xbcaa275f	-0.020770727
243	0xbe2c0c16	-0.16801485
244	0xbd6f6f1d	-0.058455575
245	0x3c12d4ba	0.008961851
246	0x3d89cc93	0.067284726
247	0x3a1dabb3	0.000601466
248	0x3ba2723d	0.004957466
249	0x3de219ab	0.11040052
250	0xbd587f46	-0.052855752
251	0x3bd35dd4	0.006450394
252	0x3c1669c6	0.009180492
253	0x3df6cabf	0.120503895
254	0x3e0ff275	0.14057334
255	0xbdc11f7d	-0.09429834

feat_extract.4.bias f4 [64]
0	0xbcf69eba	-0.030104984
1	0x3de4ebf3	0.11177816
2	0x3da33b4f	0.079702966
3	0xbd87fce8	-0.06640035
4	0xbd0cee5d	-0.03440701
5	0x3e3163ee	0.17323276
6	0x3df8bdcd	0.121455766
7	0x3e463b68	0.19358599
8	0xbd16279b	-0.036658864
9	0xbe2a3df0	-0.1662519
10	0xbe0aa9b4	-0.13541299
11	0xbcea6e4a	-0.028617043
12	0x3c31a661	0.0108428905
13	0x3e71981d	0.23593183
14	0x3e5cb31b	0.21552698
15	0x3d8a153c	0.067423314
16	0xbe321df9	-0.17394246
17	0x3db363d0	0.08759272
18	0x3e0ebb4a	0.13938633
19	0xbd82d917	-0.06389063
20	0xbdbdf57e	-0.092753395
21	0x3e1f6a01	0.15567781
22	0x3e3a0276	0.18165001
23	0x3e1fd43c	0.15608305
24	0xbe01a985	-0.12662323
25	0x3d8d92e8	0.06912786
26	0x3dd41a06	0.10356526
27	0x3e31f6fc	0.17379373
28	0x3de065bf	0.109569065
29	0x3e82aaf3	0.2552105
30	0xbcb842de	-0.022492822
31	0x3ea407a6	0.32037085
32	0x3cd3d091	0.025856288
33	0xbe398324	-0.18116432
34	0x3d73c2bd	0.05951189
35	0x3e3894c2	0.18025497
36	0xbde686b8	-0.11256164
37	0xbd39c047	-0.045349386
38	0x3deb1f20	0.11480546
39	0x3e14e1ed	0.14539309
40	0xbe522705	-0.20522697
41	0xbe64646e	-0.22303936
42	0xbdaeafb7	-0.08529609
43	0x3c86001e	0.016357478
44	0x3e4b1d8f	0.19835494
45	0x3c3fb905	0.011701827
46	0x3e1b8bbe	0.15190026
47	0xbe1c034d	-0.15235634
48	0xbe019b30	-0.12656856
49	0xbdbbd237	-0.09170955
50	0x3e6a00b1	0.22851826
51	0x3ddb401f	0.107055895
52	0xbe654bd7	-0.22392212
53	0xbc7d4d9f	-0.015460401
54	0xbe2263be	-0.15858361
55	0x3d7d5997	0.061853018
56	0x3d0f1665	0.034933466
57	0xbdcf706f	-0.10128867
58	0x3e204234	0.15650254
59	0xbbb5ec49	-0.005551849
60	0x3daeaab8	0.08528656
61	0xbe2ff77a	-0.17184249
62	0xbd3427cf	-0.043983277
63	0xbd501d8b	-0.050809424

encoder_layers.0.attn.linears.0.weight f4 [64, 64]
0	0xbcc83d00	-0.02444315
1	0x3d303854	0.04302247
2	0x3d120c9a	0.03565655
3	0xbd249733	-0.040183257
4	0xbe0d27f8	-0.13784778
5	0x3be1746b	0.006880333
6	0x3d1aed82	0.03782416
7	0xbd06556a	-0.0327963
8	0x3de79aa3	0.113087915
9	0xbd58b095	-0.052902777
10	0xbe005d13	-0.12535505
11	0xbe37bc54	-0.17942935
12	0xbc72e835	-0.01482587
13	0x3cd95d58	0.026533768
14	0xbd5a498e	-0.053292803
15	0x3b65ce59	0.003506562
16	0xbdbbc0a9	-0.091676064
17	0x3da8ca74	0.0824174
18	0xbd04faed	-0.032465864
19	0x3d782555	0.060582478
20	0xbe085263	-0.13312678
21	0x3c8807d1	0.01660529
22	0x3ca47617	0.02007584
23	0x3d64c5ec	0.055852816
24	0xbd4170a8	-0.047226578
25	0x3ddbbbf5	0.10729209
26	0xbdbc07ff	-0.09181213
27	0x3ac7515b	0.0015206741
28	0xbd1dfa54	-0.03856881
29	0x3d5f6a5c	0.05454479
30	0xbc4eaa7d	-0.01261389
31	0x3d37fcd2	0.044918843
32	0xbe010c7f	-0.12602423
33	0xbe40433e	-0.18775651
34	0xbe4fbf66	-0.20287856
35	0x3d4c0829	0.04981247
36	0xbd1f3d22	-0.03887666
37	0xbd9c6cb2	-0.076379195
38	0x3d8d555f	0.06901049
39	0x3d60cbe5	0.05488195
40	0xbdb016e9	-0.0859812
41	0xbd910de4	-0.070827276
42	0xbdf87308	-0.121313155
43	0xbe393b73	-0.18089084
44	0x3d36e76f	0.044654306
45	0xbde2984c	-0.110642046
46	0x3c98f1a8	0.018669918
47	0xbdecc473	-0.11560907
48	0xbe055cd3	-0.13023691
49	0xbe01bd59	-0.12669887
50	0x3cac3abf	0.021024106
51	0xbbbdd29e	-0.00579293
52	0xbe06ab20	-0.13151217
53	0x3ccee4e8	0.025255635
54	0xbdcc5452	-0.0997702
55	0xbd6de31f	-0.058077928
56	0x3dd92941	0.10603572
57	0xbd91bf9e	-0.07116626
58	0xbd61a6a2	-0.055090554
59	0xbd84d5d3	-0.06486096
60	0x3c926af4	0.017873265
61	0xbda75a6f	-0.08171546
62	0xbdc08b88	-0.094016135
63	0xbc94ca68	-0.018162921
64	0xbd62ac5d	-0.05534016
65	0x3d011af5	0.03151985
66	0x3ccf7aa2	0.02532703
67	0xbda00e8e	-0.07815276
68	0xbda5ad20	-0.080896616
69	0x3d6550f3	0.055985402
70	0x3b084b44	0.0020796815
71	0x3da14fdd	0.07876561
72	0x3b39dbf9	0.0028359874
73	0xbdc23f45	-0.09484724
74	0xbdb04e74	-0.08608714
75	0xbc9ac33d	-0.018891925
76	0x3ca50c27	0.020147396
77	0x3d0be82a	0.034156956
78	0x3d2a375e	0.04155671
79	0x3d30fdc3	0.043210756
80	0xbdfb4b4f	-0.12270223
81	0x3c3b884c	0.01144607
82	0x3d36dd70	0.044644773
83	0xbd8f3a20	-0.06993508
84	0xbdf22d59	-0.11825056
85	0x3d081681	0.033224586
86	0x3d987f5c	0.07446167
87	0x3b03b771	0.0020098353
88	0xbdfc43ef	-0.12317645
89	0xbc441b5a	-0.011969412
90	0x3bbfc918	0.0058528297
91	0x3d65af3d	0.056075323
92	0xbdb574af	-0.08860146
93	0x3cce4542	0.02517951
94	0xbd5b102d	-0.053482223
95	0x3d62ccc6	0.05537107
96	0x3b854b4b	0.0040678135
97	0xbd1768e2	-0.03696526
98	0xbd0f5d4f	-0.035001095
99	0x3d1a27b5	0.037635524
100	0xbda5eecd	-0.08102188
101	0xbe0504b6	-0.12990078
102	0x3c7ecc71	0.015551672
103	0x3ba491a6	0.0050222455
104	0xbe0487bb	-0.12942402
105	0xbe1ddee1	-0.15417053
106	0xb94e583e	-0.00019678564
107	0xbdc53cee	-0.09630762
108	0x3d47b427	0.04875579
109	0xbd1f20aa	-0.03884951
110	0x3c3c1ff2	0.011482226
111	0xbd36d7d2	-0.044639416
112	0xbd2287cc	-0.039680287
113	0xbd9852df	-0.074376814
114	0x3c7b5a35	0.015341331
115	0x3d4936ca	0.049124517
116	0xbdeba3c2	-0.11505844
117	0xbe004322	-0.12525609
118	0xbe141836	-0.1446236
119	0x3d45896a	0.04822675
120	0x3d27e85f	0.04099309
121	0xbdc90ba8	-0.098166764
122	0x3cb0346b	0.02150937
123	0xbddab72a	-0.10679467
124	0xbc84223c	-0.016129605
125	0xbe0ad42b	-0.13557498
126	0xbe03125f	-0.12799977
127	0xbd99017a	-0.07470985
128	0x3d6c1968	0.057641417
129	0xbc553f10	-0.013015524
130	0xbc411bac	-0.011786383
131	0x3d93ef30	0.07223356
132	0x3daf3f0b	0.08556946
133	0xbd6f48c2	-0.058418997
134	0xbc83a3ff	-0.01606941
135	0xbda7ccd4	-0.08193365
136	0x3be7af10	0.0070704296
137	0x3da11eb7	0.078671865
138	0x3d9248d8	0.071428
139	0x3c9e2238	0.019303426
140	0xbc802080	-0.015640497
141	0xbc901630	-0.017588705
142	0xbd768f09	-0.060195003
143	0xbd1a5508	-0.03767875
144	0x3dcc60ea	0.099794224
145	0xbb9f58e6	-0.0048628924
146	0xbd139c77	-0.03603789
147	0x3d7343b6	0.059390746
148	0x3debc43f	0.1151204
149	0xbca5671a	-0.020190764
150	0xbd849463	-0.06473615
151	0xbc5bfbd2	-0.013426738
152	0x3dd6c4c6	0.1048675
153	0xbc3c7194	-0.0115016885
154	0x3c93ff99	0.018066214
155	0xbd8444dc	-0.064584464
156	0x3daf311d	0.085542895
157	0xbcae7f7e	-0.021301027
158	0x3d4c164a	0.049825944
159	0xbd33cf68	-0.04389897
160	0xbbaf533e	-0.0053504994
161	0x3ccd8c17	0.025091214
162	0x3d1d1db3	0.0383584
163	0xbd084db3	-0.033277225
164	0x3d942118	0.07232875
165	0x3dcf362d	0.10117755
166	0x3aeb174e	0.0017936022
167	0xbc8eed2d	-0.017447079
168	0x3dd45ece	0.10369645
169	0x3e0ca115	0.13733323
170	0x3bfc4f39	0.0076998738
171	0x3dd261ef	0.102725856
172	0xbd2944da	-0.041325428
173	0x3d20c7a3	0.03925289
174	0xbc19c4df	-0.009385317
175	0x3ceef5a4	0.029169865
176	0x3cdddfd3	0.027084267
177	0x3d85b593	0.06528773
178	0x3c361c04	0.011115078
179	0xbd41b179	-0.04728839
180	0x3db516a0	0.08842206
181	0x3d82539e	0.06363605
182	0x3de7e238	0.11322445
183	0xbd0e9ad4	-0.034815624
184	0xbcfb3881	-0.030666592
185	0x3dcc3957	0.09971874
186	0xbc87d55e	-0.016581234
187	0x3da6c03f	0.08142137
188	0x3cb74649	0.022372382
189	0x3deee006	0.11663823
190	0x3dfaca70	0.12245643
191	0x3d8a56a1	0.067548044
192	0xbd24bc57	-0.040218677
193	0x3c5fc080	0.013656735
194	0x3cda0afa	0.026616562
195	0xbd0182c4	-0.03161885
196	0xbdb1138c	-0.086463064
197	0x3c76ac68	0.015055753
198	0x3d186af3	0.03721137
199	0xbcc0abf4	-0.023519494
200	0x3db2a2ae	0.08722435
201	0xbd366ed5	-0.04453929
202	0xbda37b51	-0.07982505
203	0xbdd0d75d	-0.10197327
204	0xbc0bbddf	-0.0085291555
205	0x3c30dfd8	0.010795556
206	0xbd130110	-0.035889685
207	0x3bbf56e0	0.0058392137
208	0xbdc1ab22	-0.09456469
209	0x3d41b119	0.047288034
210	0xbb040b22	-0.0020148237
211	0x3cfd8b81	0.03095031
212	0xbdcc0bee	-0.09963213
213	0xbc04cc25	-0.0081053125
214	0x3cc649b4	0.024205066
215	0x3d3ebffa	0.046569802
216	0xbcde69b1	-0.027150007
217	0x3daf3790	0.085555196
218	0xbd995f3c	-0.07488868
219	0x3ca7edd2	0.020499144
220	0xbc85a3c7	-0.016313447
221	0x3ce9ee94	0.028556146
222	0xbc947d42	-0.018126134
223	0x3d01ef16	0.03172215
224	0xbd873a5f	-0.0660293
225	0xbde701fa	-0.11279674
226	0xbe2a2488	-0.16615498
227	0x3ceef30c	0.029168628
228	0xbd1dcc72	-0.038525052
229	0xbd0fff0d	-0.035155345
230	0x3ce0bfd7	0.027435226
231	0x3d27671f	0.04086983
232	0xbdc91ce2	-0.09819962
233	0xbda514b7	-0.08060592
234	0xbd4eaf5f	-0.050460216
235	0xbe06c24f	-0.1316006
236	0x3d1609e8	0.03663054
237	0xbd9d9265	-0.07693938
238	0x3c1608e6	0.009157395
239	0xbd96e8f6	-0.073686525
240	0xbd92f89e	-0.07176326
241	0xbd964a67	-0.0733841
242	0xbc5053c7	-0.012715287
243	0x3c853a3b	0.016263118
244	0xbdc69eb3	-0.09698238
245	0x3d0a5e46	0.033781312
246	0xbd9775fe	-0.07395552
247	0xbcff3017	-0.03115086
248	0x3d48449a	0.04889355
249	0xbdaeff86	-0.08544831
250	0xbd2f225f	-0.04275739
251	0xbd31345c	-0.043262824
252	0xbbfc181c	-0.0076933037
253	0xbdb49c45	-0.088188685
254	0xbdd23dbc	-0.10265681
255	0xbc807d29	-0.015684681

encoder_layers.0.attn.linears.0.bias f4 [64]
0	0x3d47ce85	0.048780937
1	0x3d5f37aa	0.054496445
2	0xbd40f514	-0.047108725
3	0x3d158f6b	0.036513727
4	0xbd2e0a7a	-0.04249046
5	0x3d4cdc4f	0.05001479
6	0x3d599707	0.053122547
7	0x3d8c89f8	0.06862253
8	0x3d725797	0.059165563
9	0x3d633d8a	0.05547861
10	0xbd42bde1	-0.047544364
11	0xbd4aaaa6	-0.04947915
12	0xbd33dd66	-0.043912314
13	0x3d311b06	0.043238662
14	0x3d818f70	0.06326187
15	0xbd0cdf90	-0.034392893
16	0xbc6f90ac	-0.014621895
17	0xbc3c874b	-0.011506866
18	0xbbb0e596	-0.0053984625
19	0xbbc407e4	-0.005982386
20	0xbb65f924	-0.0035091126
21	0x3be6db6a	0.007045199
22	0x3b3003d6	0.0026857755
23	0x3afa3ff6	0.0019092548
24	0xbbcdac91	-0.006276675
25	0x3c363c01	0.0111227045
26	0xbc1fb434	-0.009747554
27	0xbc414aff	-0.011797666
28	0x3c447b76	0.011992326
29	0x3bb312e2	0.0054648975
30	0x3c34a0e1	0.011024685
31	0x3c3a37f4	0.011365879
32	0xbd190b87	-0.03736451
33	0xbd40bdb4	-0.047055915
34	0xbd3380b0	-0.043823898
35	0x3d0516ea	0.032492556
36	0xbcc339b7	-0.023831232
37	0xbd00335d	-0.031298984
38	0x3d158662	0.03650511
39	0x3ceee343	0.029161101
40	0xbd4d3247	-0.050096776
41	0xbcffabea	-0.031209905
42	0xbd3edef8	-0.04659936
43	0xbd17e553	-0.037083935
44	0x3d09292b	0.033486526
45	0xbd18b914	-0.03728588
46	0x3cf90e09	0.0304022
47	0xbd2f122f	-0.04274195
48	0xbd52cb23	-0.051463258
49	0xbcc305a1	-0.023806395
50	0x3d546ae5	0.051859755
51	0x3ce21947	0.027599944
52	0xbd352886	-0.0442281
53	0x3d8118c5	0.063035525
54	0xbd890a94	-0.06691471
55	0x3d581ca7	0.0527617
56	0x3d5a3fa8	0.053283364
57	0xbd46e60e	-0.04855924
58	0x3d46cdb9	0.048536036
59	0xbd7bc51f	-0.061467286
60	0x3d3e2635	0.046423156
61	0xbd8d821f	-0.06909584
62	0xbd630d89	-0.05543283
63	0xbd78ad3d	-0.060712088

encoder_layers.0.attn.linears.1.weight f4 [64, 64]
0	0xbdea268c	-0.114331335
1	0xbca62f84	-0.02028633
2	0xba9cc096	-0.001195925
3	0xbe0151b0	-0.12628818
4	0xbe0e25e0	-0.13881636
5	0x3e047ea2	0.12938932
6	0x3ae8ae2e	0.0017752105
7	0x3e6f2f15	0.23357804
8	0xbe197ce4	-0.14989048
9	0xbdb99bd5	-0.09062926
10	0xbe1108a4	-0.14163452
11	0xbd75f51a	-0.0600482
12	0xbd17234f	-0.036898907
13	0x3deebc36	0.11656992
14	0x3e278e22	0.16362813
15	0x3d044036	0.0322878
16	0xbdc356d3	-0.09538045
17	0x3d90a762	0.07063176
18	0xbca19a85	-0.019727001
19	0xbdb92faf	-0.09042298
20	0xbe32a87b	-0.17447083
21	0x3dcd2fd2	0.100188866
22	0x3d7b5850	0.06136352
23	0xbcfbd892	-0.030742917
24	0xbe410200	-0.18848419
25	0xbdafc90d	-0.08583269
26	0x3e836374	0.25661814
27	0x3ddb3d77	0.10705083
28	0xbc50db11	-0.012747542
29	0x3d90d0ad	0.07071052
30	0xbdc29d40	-0.09502649
31	0x3e252693	0.16127996
32	0x3d1ac2e2	0.03778351
33	0x3d5d146e	0.05397456
34	0xbd212e16	-0.03935059
35	0x3d95bbac	0.07311186
36	0xbdbdeb8d	-0.09273443
37	0xbe62eb5f	-0.221601
38	0x3d0bc767	0.03412571
39	0xbd363e01	-0.044492725
40	0xbdd6ecd4	-0.1049439
41	0xbe3073b1	-0.17231633
42	0xbdc051f7	-0.093906336
43	0xbe09b24f	-0.13446926
44	0x3e00667a	0.12539092
45	0xbddd8fc1	-0.108184345
46	0x3d4756ce	0.048666768
47	0xbdc5cc52	-0.09658112
48	0xbdf487bf	-0.11939954
49	0xbdf65bc8	-0.12029225
50	0x3deacf45	0.11465315
51	0x3dab9806	0.083786055
52	0xbe2efd69	-0.17088856
53	0xbe799593	-0.24373464
54	0xbd9ba51a	-0.0759985
55	0x3c684f6c	0.014179092
56	0xbddae22c	-0.1068767
57	0xbe01fc58	-0.12693918
58	0x3e89bbd3	0.2690111
59	0xbd790f54	-0.060805634
60	0xbc99a0a1	-0.018753352
61	0xbe01c754	-0.12673694
62	0xbe3842ce	-0.17994234
63	0xbdcf6311	-0.10126317
64	0x3d6a87ea	0.057258524
65	0x3db6f5c2	0.08933593
66	0xbbbd0d53	-0.0057694106
67	0x3d2b3f09	0.041808162
68	0xbdc1b502	-0.094583526
69	0xbda298ea	-0.07939322
70	0x3d8a1fd5	0.06744353
71	0xbdceae64	-0.10091856
72	0x3e3f9c8c	0.18712062
73	0x3ce8456b	0.028353414
74	0xbd8f274c	-0.06989917
75	0xbe234543	-0.1594439
76	0xbd73f3c3	-0.05955864
77	0x3be7f871	0.007079177
78	0xbded311e	-0.11581634
79	0xbd43b620	-0.04778111
80	0x3cdf59dd	0.02726453
81	0x3cbedb7c	0.023298018
82	0xbd91db56	-0.07121913
83	0x3e10b5c3	0.14131837
84	0xbdb3bab8	-0.08775848
85	0x3c017e02	0.007903578
86	0xbd087ca8	-0.033322006
87	0x3dd6fb83	0.10497191
88	0xbd007919	-0.031365488
89	0x3e2b006f	0.16699384
90	0xbdab58ba	-0.083665326
91	0xbda3035e	-0.079596266
92	0x3cd9a578	0.02656816
93	0x3c3a70ab	0.011379401
94	0x3daafb9b	0.08348771
95	0xbcb98b5b	-0.022649458
96	0xbe1196b2	-0.14217642
97	0xbe5c7898	-0.21530378
98	0xbe2693d6	-0.16267332
99	0xbbd9bb85	-0.0066446685
100	0x3d273bc3	0.040828478
101	0xbcd76553	-0.026293432
102	0x3d422671	0.04739994
103	0x3de81a55	0.113331474
104	0x3ceaec5d	0.02867716
105	0x3ca531d7	0.020165367
106	0xbdf942f1	-0.12170971
107	0xbe05c949	-0.13065065
108	0xbcfff87f	-0.031246422
109	0xbdb4649f	-0.088082545
110	0x3d4148c4	0.047188535
111	0xbd564fed	-0.052322317
112	0xbd824e30	-0.06362569
113	0xbdbab36d	-0.09116254
114	0x3c59b55b	0.013287867
115	0xbdad0462	-0.084481016
116	0xbc9b4739	-0.01895486
117	0xbcafe3a7	-0.021470858
118	0x3b56a773	0.0032753616
119	0xbdc6b460	-0.097023726
120	0x3e3cf352	0.18452194
121	0x3d883840	0.06651354
122	0xbda154a1	-0.0787747
123	0x3ce30e54	0.027716793
124	0x3daf0905	0.08546642
125	0x3d0f0089	0.03491262
126	0xbd960f98	-0.07327193
127	0x3d3c82a5	0.04602303
128	0xbd026df3	-0.031843137
129	0xbdfeea30	-0.124470115
130	0xbc992bab	-0.01869758
131	0xbc643363	-0.013928267
132	0x3e39efec	0.18157929
133	0x3d4884e1	0.04895485
134	0xbdf31eab	-0.11871084
135	0x3d9af94c	0.07567081
136	0xbe4076d8	-0.18795335
137	0x3b45ae85	0.0030163836
138	0x3e0cf2e2	0.13764527
139	0x3e5636a8	0.20919287
140	0x3d1bb823	0.038017403
141	0xbd43344f	-0.047657307
142	0x3db65a9f	0.08904003
143	0x3c97d8c4	0.01853598
144	0x3c0f3585	0.008740787
145	0xbd9b069a	-0.075696185
146	0x3d5c1e03	0.05373956
147	0xbe07cad6	-0.1326097
148	0x3e2c37c7	0.16818152
149	0xbd4b51e7	-0.049638655
150	0xbb3fed70	-0.002928581
151	0xbe260084	-0.16211134
152	0x3d940073	0.07226648
153	0xbe802a6a	-0.2503236
154	0x3da0d0a6	0.078522965
155	0x3d4b3ac7	0.0496166
156	0xba86e81b	-0.0010292561
157	0xbd8028c8	-0.062577784
158	0xbd7152b6	-0.05891677
159	0xbca21443	-0.019785052
160	0x3e192290	0.14954591
161	0x3e84de1c	0.25950706
162	0x3e268869	0.16262974
163	0xbd17a5b0	-0.037023246
164	0xbc36fb38	-0.011168294
165	0x3da5df44	0.08099225
166	0xbdbd1d4d	-0.09234104
167	0xbe360d02	-0.177784
168	0x3bd0e7b4	0.0063752774
169	0x3c9674a1	0.01836616
170	0x3e40bbd4	0.1882165
171	0x3e407444	0.18794352
172	0xbbf7897a	-0.0075542303
173	0x3dbe7e5e	0.093014464
174	0xbdc72449	-0.09723718
175	0x3dd83176	0.10556309
176	0x3e0b020e	0.13575003
177	0x3e22cf63	0.15899424
178	0xbd5c297e	-0.053750508
179	0x3d765c35	0.06014653
180	0x3da37720	0.07981706
181	0x3d5749eb	0.052560728
182	0x3d0f1114	0.034928396
183	0x3da7dd43	0.08196499
184	0xbe6cba32	-0.23117903
185	0xbd1ccbed	-0.038280416
186	0x3d7be1c1	0.061494593
187	0x3b7802a8	0.003784338
188	0xbe0cd272	-0.13752154
189	0x3add8398	0.001690018
190	0x3e05c95f	0.13065098
191	0xbcb78232	-0.02240095
192	0xbe856de1	-0.26060393
193	0x3e63179e	0.22176978
194	0xbbe2f8a5	-0.0069266134
195	0xbe7a0f9e	-0.2442002
196	0xbe8e48b9	-0.27789858
197	0x3ec0487b	0.37555298
198	0x3e9340eb	0.28760466
199	0x3f3406cf	0.7032289
200	0xbe5d5067	-0.21612702
201	0xbe2909df	-0.16507672
202	0xbe98f6e7	-0.29875872
203	0xbe27284d	-0.16323967
204	0xbdce0a89	-0.10060603
205	0x3f163833	0.58679503
206	0x3ed176ea	0.40911037
207	0x3d8ce304	0.06879237
208	0xbe122c2a	-0.1427466
209	0x3e8bf190	0.27332735
210	0xbd8fb5fb	-0.07017132
211	0x3c703730	0.014661595
212	0xbea95cd3	-0.33078632
213	0x3f08cbcf	0.5343599
214	0x3dc1df78	0.094664514
215	0x3e6ca986	0.23111543
216	0xbec92fb3	-0.39294204
217	0x3e1dc124	0.15405709
218	0x3f601937	0.87538475
219	0x3e8e5315	0.27797762
220	0x3e13ef2d	0.14446707
221	0x3e287c22	0.16453603
222	0xbe0de602	-0.13857272
223	0x3f11aff4	0.5690911
224	0x3decc6ee	0.1156138
225	0xbc869833	-0.016429996
226	0xbd894d9f	-0.06704258
227	0x3e56d301	0.20978929
228	0xbe39e304	-0.18153006
229	0xbee058c7	-0.43817732
230	0x3e50c1ea	0.20386472
231	0x3e5d957e	0.21639058
232	0xbe289b64	-0.16465527
233	0xbe81ed9b	-0.2537659
234	0xbe70ded3	-0.235225
235	0xbe807055	-0.25085703
236	0x3eda2d16	0.42612523
237	0xbe6cb764	-0.23116833
238	0x3edba344	0.42898
239	0xbe73600f	-0.23767112
240	0xbe8fbec4	-0.2807523
241	0xbe827eec	-0.2548746
242	0x3f18ede1	0.59737974
243	0x3e70c834	0.23513871
244	0xbe992fd2	-0.29919297
245	0xbf11eb49	-0.5699964
246	0xbddb5e7e	-0.10711382
247	0x3cb1b0ee	0.021690812
248	0x3cb51980	0.022106886
249	0xbd413f4e	-0.047179513
250	0x3f56ca3d	0.8390234
251	0xbdd1d5ae	-0.10245834
252	0x3ec14992	0.37751442
253	0xbe70d463	-0.23518519
254	0xbeb627b8	-0.35577178
255	0xbe69ac08	-0.22819531

encoder_layers.0.attn.linears.1.bias f4 [64]
0	0x3d5d4e4d	0.05402975
1	0x3b8477f9	0.004042622
2	0xbd09e82b	-0.03366868
3	0x3dd10e1e	0.10207771
4	0xbe574ede	-0.21026179
5	0x3db3634a	0.08759172
6	0x3bf79d9a	0.0075566294
7	0x3c978589	0.018496292
8	0x3c741089	0.01489652
9	0x3c2db1e2	0.010601493
10	0xbcd442c4	-0.025910743
11	0xbd19a0ef	-0.037506994
12	0xbced4647	-0.028964175
13	0x3d52c677	0.051458802
14	0x3c4f76e2	0.012662621
15	0xbe41fbf0	-0.18943763
16	0xbd2498f4	-0.04018493
17	0xbc616c32	-0.013758706
18	0xbd358ba6	-0.044322632
19	0xbc9f9a6e	-0.019482818
20	0xbd1e41cf	-0.03863698
21	0x3d6707be	0.056403868
22	0x3d691648	0.056906015
23	0x3d280e5a	0.04102931
24	0xbcef1c1d	-0.02918821
25	0x3c9131aa	0.017723877
26	0xbd1151da	-0.03547845
27	0xbcc9450d	-0.024569059
28	0x3c92a2da	0.01789992
29	0x3c71727a	0.014736766
30	0x3d141525	0.036152977
31	0x3c9aa014	0.01887516
32	0xbc608340	-0.013703167
33	0xbcc49016	-0.023994487
34	0xbcc65c95	-0.024214068
35	0x3d259583	0.04042579
36	0xbbc0575c	-0.005869789
37	0xbd1557a7	-0.036460545
38	0x3cf58808	0.029972091
39	0x3cc277c6	0.023738753
40	0xbc898397	-0.01678638
41	0xbcc5f561	-0.024164857
42	0xbc91eb75	-0.01781247
43	0xbc96726d	-0.01836511
44	0x3d2795de	0.04091441
45	0xbcb7b6d6	-0.02242605
46	0x3d8cda6a	0.06877597
47	0xbcd0d556	-0.025492352
48	0xbd3deb1a	-0.04636679
49	0xbd6acd9c	-0.05732499
50	0x3d84f178	0.06491369
51	0x3dc097bd	0.09403942
52	0xbd4eb8ae	-0.050469093
53	0x3d4e865f	0.050421115
54	0xbd04d8a3	-0.032433163
55	0x3d0c6357	0.034274425
56	0x3d1cfa36	0.038324557
57	0xbd667f45	-0.056273717
58	0x3d71f6d0	0.05907327
59	0xbd0ddcb5	-0.03463431
60	0x3d4a477a	0.04938457
61	0xbd0d6ad4	-0.034525707
62	0xbd3fca36	-0.046823703
63	0xbce98831	-0.028507324

encoder_layers.0.attn.linears.2.weight f4 [64, 64]
0	0x3c8e8227	0.017396046
1	0xba344ac4	-0.0006877596
2	0xbbabe7cd	-0.0052461387
3	0xb9afd421	-0.0003353665
4	0x3c60d44a	0.013722489
5	0x3bb618e1	0.005557165
6	0x3c6f6315	0.014611025
7	0x3d227c8b	0.039669555
8	0xbcaeb3b0	-0.021325916
9	0xbb1e768f	-0.0024179553
10	0xbb2e180d	-0.0026564628
11	0x3d15abfa	0.036540963
12	0xbc0c776c	-0.008573394
13	0xbaff1d32	-0.0019463657
14	0x3d194b0c	0.037425086
15	0xbbdf0a6d	-0.006806663
16	0xbb78b3fc	-0.0037949076
17	0xbce8ac36	-0.02840243
18	0x3c6b5e9c	0.014365818
19	0xbc851d3e	-0.016249295
20	0xbc023c6d	-0.007948977
21	0xbbb85204	-0.0056250114
22	0xb75da193	-1.3210246e-05
23	0x3ba0a633	0.004902625
24	0xbd852e7d	-0.065030076
25	0x3a952b76	0.001138075
26	0x3b5ee09a	0.0034008385
27	0x3c7962d2	0.0152213145
28	0x3bd8db7d	0.006617962
29	0xbcbb9a5f	-0.022900758
30	0x3b542e9d	0.0032376416
31	0xbab9215c	-0.0014124322
32	0x3d006e7a	0.03135536
33	0x3b2aa529	0.0026038385
34	0x3ca9645f	0.020677743
35	0xbc97ffbc	-0.01855456
36	0xbb817afa	-0.0039514275
37	0xbc9dad54	-0.019247688
38	0xbb97d538	-0.004633572
39	0x3bdf85cc	0.0068213698
40	0xbbb72818	-0.0055894963
41	0xbbb55b90	-0.0055345967
42	0x3c1687c6	0.009187644
43	0xbbd24bdb	-0.006417734
44	0xbb98633c	-0.0046505015
45	0xbc9d924f	-0.019234804
46	0x3ba45fe0	0.005016312
47	0x3a863cde	0.0010241529
48	0x3b52fddc	0.003219477
49	0x3a68f959	0.00088872534
50	0xbc3e84d2	-0.0116283465
51	0x3c8202c2	0.015870456
52	0xb8ddcb8a	-0.00010576013
53	0xbd13f676	-0.036123715
54	0xbbaacde7	-0.0052125338
55	0x3c5833ec	0.013195973
56	0x3cae08c1	0.021244409
57	0xbb5f807b	-0.003410368
58	0x3c926a8f	0.017873077
59	0xbb85903c	-0.004076032
60	0xbb1decb1	-0.0024097378
61	0xbbd38603	-0.0064551844
62	0xbd7d6a01	-0.06186867
63	0xbb6505ff	-0.00349462
64	0xbd007fc5	-0.03137185
65	0x3df26bd9	0.118369766
66	0x3de318eb	0.11088737
67	0xbda2a4f3	-0.07941618
68	0xbc852587	-0.016253246
69	0x3e41d6ae	0.1892955
70	0x3d8d0ca6	0.06887178
71	0x3e00c349	0.12574495
72	0xbb29f7a3	-0.0025934957
73	0xbd81728a	-0.06320675
74	0xbd63d777	-0.055625405
75	0xbc24e46a	-0.010064224
76	0x3e03dd09	0.12877287
77	0x3e097e11	0.13426997
78	0x3e812239	0.25221422
79	0x3e29b316	0.16572222
80	0xbd5beea2	-0.053694375
81	0x3e2cfa21	0.16892292
82	0x3e157b66	0.14597854
83	0xbbe6bc3d	-0.0070414827
84	0xbc16733c	-0.009182747
85	0x3dfd8b3c	0.123800725
86	0x3e0ebff5	0.13940413
87	0x3d93c7e3	0.0721586
88	0xbd2d2c80	-0.042278767
89	0x3d4c7dce	0.049924664
90	0x3d666b9a	0.05625496
91	0x3e56c6b7	0.20974241
92	0x3c64d658	0.013967119
93	0x3e0bd84e	0.13656732
94	0xbca153d0	-0.019693285
95	0x3e470282	0.1943455
96	0x3dd14898	0.10218924
97	0xbd93825a	-0.07202597
98	0x3e05cf24	0.13067299
99	0x3e260122	0.1621137
100	0xbd6bb8ad	-0.057549167
101	0xbde3dd08	-0.11126143
102	0x3de999f5	0.11406318
103	0x3dbb6c56	0.09151523
104	0xbd79ea7e	-0.061014645
105	0xbdd4a229	-0.10382492
106	0xbd85fb5d	-0.06542084
107	0x3d6c5a18	0.057703108
108	0x3e47c078	0.19507015
109	0x3dc42d81	0.09578992
110	0x3d906d6e	0.07052122
111	0xbd8cbac5	-0.06871561
112	0xbda2b74a	-0.07945116
113	0xbcb10ebc	-0.021613471
114	0x3e006368	0.1253792
115	0x3e284b06	0.16434869
116	0xbdc2d7cc	-0.09513816
117	0xbd8481f0	-0.06470096
118	0xbd4f8a71	-0.050669137
119	0x3e43cabf	0.1912031
120	0x3da3455f	0.07972216
121	0x3b114391	0.0022165517
122	0x3d9f8386	0.07788758
123	0xbd3c0721	-0.045905236
124	0x3da57d83	0.0808058
125	0xbdbc75f6	-0.09202187
126	0x3b515f80	0.0031947792
127	0xbda47d4d	-0.08031712
128	0x3c46fcd3	0.012145239
129	0x3ca7f784	0.020503767
130	0xbb9f0ae2	-0.0048535923
131	0x3b99645d	0.0046811537
132	0xbd3f3e4f	-0.04669028
133	0x3bbe1b6c	0.005801609
134	0x3cb9c106	0.022675049
135	0x3cc503fd	0.024049753
136	0x3c75d56f	0.0150045
137	0x3b7ff11a	0.003905362
138	0xbcf71004	-0.030159004
139	0xbc8d1367	-0.017221166
140	0xbd13db52	-0.036097832
141	0x3c8dd601	0.01731396
142	0x3cf0368e	0.029322889
143	0xbc83b334	-0.016076662
144	0x3b130f17	0.0022439414
145	0xbbf56e42	-0.0074899504
146	0xbcdc5b33	-0.026898956
147	0x3b4dc310	0.0031396784
148	0xbd9a1699	-0.075238414
149	0x3c906d34	0.017630197
150	0xbbedb351	-0.007254042
151	0x3cb67221	0.022271218
152	0xbd979810	-0.074020505
153	0x3c9c81b3	0.019104814
154	0xbc1cf83c	-0.009580668
155	0x3bb890f5	0.0056325146
156	0x3c18a845	0.009317462
157	0xbc76d58e	-0.015065564
158	0x3c5ede19	0.013602757
159	0x3ca153b6	0.019693237
160	0xbc581177	-0.013187758
161	0xbc527155	-0.012844403
162	0xbd93b8f5	-0.07213012
163	0xbbabfbd2	-0.005248525
164	0x3ba52ab3	0.0050404905
165	0xbd0c0d5a	-0.03419242
166	0x3c0a17bd	0.008428511
167	0x3cde7e7a	0.027159918
168	0xba3f73b1	-0.0007303311
169	0xbc11b053	-0.008892137
170	0xbc1db4ad	-0.009625596
171	0xbde5572b	-0.111982666
172	0x3bd43b91	0.0064768274
173	0xbda3521e	-0.07974647
174	0x3c8b5bab	0.017011484
175	0xbc53a759	-0.012918317
176	0xbc561e9b	-0.01306882
177	0xbd088f7b	-0.03333996
178	0x3c03bcd7	0.008040628
179	0xbb824f11	-0.0039767106
180	0xbc1dda9a	-0.009634638
181	0xbd8236b9	-0.06358094
182	0xba825edf	-0.0009946487
183	0xbcb82364	-0.022477813
184	0x3ca9bdfc	0.020720474
185	0x3c32dd0b	0.010916959
186	0x3c8ec8c9	0.017429726
187	0x3bcb78f4	0.006209487
188	0x3c814e93	0.015784537
189	0xbbbca58d	-0.00575704
190	0xbdec97be	-0.1155238
191	0x3bc038e5	0.0058661574
192	0xbc1d52a3	-0.009602222
193	0xbca5d872	-0.02024481
194	0xbb9feb10	-0.0048803166
195	0x3a21030b	0.0006142116
196	0x3b99e97f	0.0046970244
197	0x3c8fd81b	0.017559102
198	0xbc03de10	-0.008048549
199	0x3d3fe019	0.046844576
200	0xbda795bd	-0.08182857
201	0xbba112e4	-0.004915582
202	0xbb3e707d	-0.0029058747
203	0x3c9dd441	0.01926625
204	0xbbadbcb7	-0.0053020376
205	0xbc71a656	-0.01474913
206	0x3d53a292	0.05166871
207	0xbb81f994	-0.0039665196
208	0xbb959ebd	-0.004566042
209	0xbd0f0ef0	-0.034926355
210	0x3b986a70	0.00465136
211	0xbd25dd29	-0.040494118
212	0xbc51246a	-0.012765029
213	0xbca4d075	-0.020118931
214	0x3ac854ca	0.0015284058
215	0xbc9dd677	-0.019267304
216	0xbd312675	-0.043249566
217	0xbd22f0e3	-0.03978051
218	0x3c272ca7	0.010203517
219	0x3ca16972	0.0197036
220	0xbac598a4	-0.0015075398
221	0xbc811607	-0.015757574
222	0xbc531c91	-0.012885229
223	0xbbbae93e	-0.005704074
224	0x3d358669	0.044317637
225	0x3c9e05cc	0.019289874
226	0xbbfc56fe	-0.0077008
227	0xbc8216fe	-0.015880104
228	0xbc193b6e	-0.009352548
229	0xbc43ea04	-0.011957649
230	0xbc2e9759	-0.010656201
231	0xbcd49d7c	-0.025954
232	0xbbd69e90	-0.006549664
233	0xbba07fe5	-0.0048980587
234	0x3bc61318	0.0060447566
235	0xbca7b5a4	-0.020472355
236	0xbadf0fe8	-0.001701829
237	0xbca235ed	-0.019801104
238	0xbc72e695	-0.014825483
239	0x3ab202d8	0.001358117
240	0x3a914548	0.001108327
241	0xba8be9d0	-0.001067454
242	0xbcbac9f1	-0.022801371
243	0x3c9fbec3	0.019500142
244	0x3a5567ef	0.00081407925
245	0xbcf7a8ca	-0.030231852
246	0xbb58fe55	-0.0033110578
247	0x3c08f9fb	0.008360381
248	0xbd43935e	-0.047747962
249	0xbcb035de	-0.02151006
250	0x3ceb78e2	0.028744165
251	0xbbce14da	-0.006289107
252	0xbcf0d8dd	-0.029400283
253	0xbc19e28c	-0.009392392
254	0xbd235821	-0.03987897
255	0xbc52824f	-0.012848451

encoder_layers.0.attn.linears.2.bias f4 [64]
0	0x3b7caeac	0.003855626
1	0x3d6a1530	0.057149112
2	0x3bb2fe9f	0.005462482
3	0x3b259ca8	0.0025270376
4	0xbb1006fe	-0.0021976824
5	0xbb37f34a	-0.0028068596
6	0xbb2ab88f	-0.0026049947
7	0xbaabf5e7	-0.0013119549
8	0xba2aa318	-0.0006509288
9	0xbc91fe9c	-0.017821603
10	0xb85ea43d	-5.3081883e-05
11	0xbbbe56f0	-0.0058087036
12	0xbbc56e42	-0.0060251066
13	0x399a700a	0.00029456645
14	0x3b4bba57	0.003108641
15	0xba88b80f	-0.001043083
16	0xbbd9fc3f	-0.0066523845
17	0xba95c11b	-0.0011425348
18	0x3a972c88	0.0011533657
19	0xbbb82aad	-0.0056203217
20	0xbab35035	-0.001368052
21	0x3babd4eb	0.0052438877
22	0xbaad74b8	-0.0013233637
23	0xbbb59023	-0.005540864
24	0x3b3bf1d0	0.0028678067
25	0x3bbcbaeb	0.005759587
26	0xba07c0d6	-0.0005178576
27	0x3aa4559b	0.001253772
28	0xbd6b7716	-0.057486616
29	0xbb663a0b	-0.003512981
30	0x3da2cfa4	0.079497606
31	0x3b36677d	0.002783268
32	0xbca5886b	-0.02020665
33	0xb9dd279d	-0.0004218192
34	0x3a46a34c	0.0007577434
35	0x3da2e263	0.07953336
36	0x3a181b8a	0.00058024435
37	0xbb2ac4b2	-0.002605718
38	0xbc482108	-0.0122149065
39	0xbbc8a552	-0.0061232233
40	0x3c00ae88	0.0078541115
41	0xb8bb9c44	-8.9459616e-05
42	0x3aac6426	0.0013152405
43	0xbb44788d	-0.002997908
44	0xbc28aa7d	-0.010294554
45	0xbbd6eb3a	-0.006558803
46	0x3c07b5c1	0.00828308
47	0xbbdf2849	-0.0068102223
48	0x3b9351a9	0.0044958186
49	0x3b584896	0.003300225
50	0x3c3e6f71	0.011623249
51	0xb9d09b7d	-0.000397887
52	0xbb45f401	-0.0030205252
53	0x3bcd1327	0.0062583867
54	0x3b89263c	0.004185466
55	0xb9d9c519	-0.00041536315
56	0xbaedd99e	-0.001814652
57	0xbc4e062b	-0.012574713
58	0x3cb99b13	0.022656953
59	0x3b6e910c	0.0036402373
60	0x3b5c8cae	0.0033653188
61	0xbdcb9f1e	-0.099424586
62	0x3a8d3bab	0.0010775229
63	0xbbc66402	-0.0060544023

encoder_layers.0.attn.norm_K.0.weight f4 [16]
0	0x3f648240	0.89261246
1	0x3f86a196	1.0518062
2	0x3f82e29b	1.0225405
3	0x3f2fa6d8	0.6861396
4	0x3f1afd90	0.60543156
5	0x3f3b82f2	0.7324668
6	0x3f8786e4	1.058804
7	0x3f887a43	1.0662311
8	0x3f88dd22	1.0692484
9	0x3f86fe85	1.0546423
10	0x3f80b7d9	1.0056106
11	0x3f82c9f3	1.021788
12	0x3f8188ba	1.0119851
13	0x3f6ae570	0.91756344
14	0x3f89ba2a	1.0759938
15	0x3f186b56	0.5953878

encoder_layers.0.attn.norm_K.0.bias f4 [16]
0	0xbe0ba2ab	-0.13636272
1	0x3dd6a427	0.10480528
2	0xbda8e2a5	-0.08246354
3	0xbeb7b478	-0.35879874
4	0x3ee8e444	0.45486653
5	0xbe9823aa	-0.2971471
6	0x3da3dd32	0.08001174
7	0x3d82a367	0.06378823
8	0x3daca783	0.08430388
9	0x3d89f791	0.06736673
10	0xbdf78a41	-0.12086917
11	0xbdb0dda0	-0.086360216
12	0xbda42111	-0.080141194
13	0xbe16d037	-0.14727865
14	0x3d981e6e	0.07427679
15	0x3eeee4d4	0.46658957

encoder_layers.0.attn.norm_K.1.weight f4 [16]
0	0x3f64ca0e	0.8937081
1	0x3f702628	0.9380822
2	0x3f559b9d	0.8344057
3	0x3f6e41f2	0.93069375
4	0x3f60bb71	0.8778601
5	0x3f58511e	0.84498775
6	0x3f51db0a	0.8197485
7	0x3f59d3fb	0.8508908
8	0x3f6b19a3	0.91835994
9	0x3f74098f	0.95327085
10	0x3f6cebe4	0.9254744
11	0x3f734bab	0.95037335
12	0x3f708995	0.93959934
13	0x3f70ce60	0.94064903
14	0x3f6e24d9	0.93024975
15	0x3f73a32e	0.9517087

encoder_layers.0.attn.norm_K.1.bias f4 [16]
0	0x3d8ecf6e	0.06973158
1	0x3cf2ef1d	0.029655034
2	0x3dd400e5	0.10351733
3	0x3d700c88	0.0586057
4	0x3dd3aa4d	0.10335217
5	0xbddf2a8e	-0.108967885
6	0xbde4126a	-0.11136325
7	0xbdc8259e	-0.097728
8	0x3d454503	0.048161518
9	0xbc95912f	-0.018257705
10	0x3d3c0fbf	0.045913454
11	0x3cbfe926	0.023426604
12	0xbd12cce1	-0.03583992
13	0xbd02b5bc	-0.031911597
14	0xbd6ea276	-0.058260404
15	0xbc05e196	-0.00817146

encoder_layers.0.attn.norm_K.2.weight f4 [16]
0	0x3f61a3f5	0.88140804
1	0x3f6d0d1a	0.92598116
2	0x3f6b4c5c	0.9191339
3	0x3f466286	0.77494085
4	0x3f639a60	0.8890743
5	0x3f5b4322	0.8564931
6	0x3f71de41	0.9447976
7	0x3f578105	0.84181243
8	0x3f6c0814	0.92199826
9	0x3f51b6ae	0.8191937
10	0x3f6aca9d	0.91715413
11	0x3f636076	0.8881906
12	0x3f45fb02	0.7733613
13	0x3f6c81e1	0.9238568
14	0x3f157b0e	0.5839089
15	0x3f5daced	0.8659199

encoder_layers.0.attn.norm_K.2.bias f4 [16]
0	0x3ccd177e	0.025035616
1	0xbba3c9ae	-0.0049984073
2	0x3d34b3a9	0.04411665
3	0xbe4b7ff2	-0.19873026
4	0x3cfa1b4e	0.030530598
5	0x3db4c0d6	0.08825843
6	0xbc1774e1	-0.009244175
7	0xbe162ce3	-0.1466556
8	0x3bf5a25c	0.0074961614
9	0x3dec7fbf	0.11547803
10	0x3c250a2b	0.010073225
11	0x3d097a2c	0.033563778
12	0xbe67ec25	-0.22648676
13	0x3cbced8d	0.023062492
14	0xbeb64168	-0.35596776
15	0x3d84e572	0.06489076

encoder_layers.0.attn.norm_K.3.weight f4 [16]
0	0x3f68046f	0.90631765
1	0x3f365f58	0.71239233
2	0x3f5621ed	0.83645517
3	0x3f2daf81	0.6784592
4	0x3f6578e1	0.8963757
5	0x3f5be9ba	0.85903513
6	0x3f632d4c	0.8874099
7	0x3f52d634	0.823581
8	0x3f4fe816	0.8121351
9	0x3f5be325	0.8589347
10	0x3f6df00d	0.92944413
11	0x3f603365	0.8757842
12	0x3f596423	0.8491842
13	0x3f5d737a	0.8650433
14	0x3f76c19e	0.96389186
15	0x3f4e2191	0.8051997
