net_adam.pt (torch, 285579 bytes, 43 tensors)

feat_extract.0.weight f4 [64, 2]
-0.039715465 0.03996361 0.0323846 0.42857805 0.47849086 0.35299942 0.73766726 0.10696523
-0.66891617 0.082134776 0.55884165 -0.4624839 0.6107514 0.5708029 -0.062575445 -0.051196378
0.6944346 0.424016 0.29229808 0.16413693 0.4152898 0.12727822 0.2550366 0.17507039
-0.51746243 0.6727648 0.16548501 -0.24178892 0.47757667 -0.74469537 -0.254082 0.5826177
-0.5308088 -0.032539606 0.691794 -0.3461254 -0.31951922 0.4002497 0.11522325 -0.34723487
-0.39692393 0.46209306 0.33683428 0.342326 -0.40737778 0.3501094 -0.6364524 -0.36699718
-0.07340749 -0.47191665 0.21664244 -0.50192565 -0.5776169 0.67635924 -0.71481216 0.21370572
-0.002813677 0.054197803 -0.11242576 0.5169834 -0.0865794 -0.009073704 -0.14736107 -0.5937813
-0.049733043 0.5911783 -0.62824965 -0.43102947 0.09096894 0.022431515 0.23949502 -0.4842291
0.15896314 0.21069027 -0.69461036 -0.5349245 -0.578818 0.5881792 -0.22701567 -0.120852076
-0.2593523 0.26815283 -0.34109387 -0.12713191 -0.34195969 -0.6501695 0.28366184 0.1275682
-0.06512453 -0.44759038 -0.64380574 0.44561663 -0.07738649 0.27075025 -0.32506517 -0.43208143
-0.04423087 -0.287222 0.6311431 0.007991746 -0.46362257 -0.14607435 0.44380623 -0.6169593
-0.45374835 -0.020291654 -0.084106535 -0.28661776 -0.73918027 0.3242404 0.76054275 -0.24890499
-0.74549 -0.014241429 -0.5845219 -0.16507272 0.2605211 0.37155822 0.2801853 0.10285563
-0.026511397 -0.086251155 -0.2863198 0.18610324 -0.4291204 -0.36094275 -0.51649344 -0.041976504
00000000: afac 22bd e2b0 233d b7a5 043d 956e db3e
00000010: c1fc f43e 57bc b43e c3d7 3c3f 9610 db3d
00000020: 173e 2bbf 4736 a83d 3f10 0f3f b1ca ecbe
00000030: 345a 1c3f 2420 123f 8e27 80bd 4bb3 51bd
00000040: 77c6 313f a018 d93e 18a8 953e 8313 283e
00000050: dda0 d43e 3955 023e 2894 823e a745 333e
00000060: 6b78 04bf 503a 2c3f e774 293e 8497 77be
00000070: ee84 f43e 5ba4 3ebf 0917 82be 6f26 153f
00000080: 16e3 07bf 4048 05bd 6919 313f 5937 b1be
00000090: 0698 a3be 87ed cc3e 2bfa eb3d c5c8 b1be
000000a0: 9d39 cbbe 7697 ec3e 8b75 ac3e 5a45 af3e
000000b0: d293 d0be 8a41 b33e 8bee 22bf 0ee7 bbbe
000000c0: ab56 96bd 0f9f f1be 84d7 5d3e 337e 00bf
000000d0: b3de 13bf e125 2d3f eefd 36bf acd5 5a3e
000000e0: ab65 38bb 84fe 5d3d 7a3f e6bd 0659 043f
000000f0: 8a50 b1bd dfa9 14bc d2e5 16be 0d02 18bf
00000100: e0b4 4bbd 7657 173f f8d4 20bf e5af dcbe
00000110: ec4d ba3d 4cc2 b73c 2f3e 753e e0ec f7be
00000120: 3cc7 223e 31bf 573e fcd1 31bf d0f0 08bf
00000130: 6b2d 14bf e992 163f cc76 68be 4b81 f7bd
00000140: d3c9 84be 544b 893e dba3 aebe de2e 02be
00000150: 5715 afbe 8271 26bf 203c 913e 3da1 023e
00000160: 0260 85bd 912a e5be 74d0 24bf dd27 e43e
00000170: cf7c 9ebd c79f 8a3e f16e a6be c739 ddbe
00000180: 6e2b 35bd c30e 93be 9892 213f d0ef 023c
00000190: f05f edbe 8494 15be 923a e33e 0bf1 1dbf
000001a0: b451 e8be af3a a6bc 0c40 acbd 90bf 92be
000001b0: eb3a 3dbf d602 a63e eeb2 423f f3e0 7ebe
000001c0: 6fd8 3ebf e254 69bc 3aa3 15bf d308 29be
000001d0: 0663 853e e13c be3e 7374 8f3e f9a5 d23d
000001e0: 6e2e d9bc 72a4 b0bd 8298 92be d991 3e3e
000001f0: abb5 dbbe 7dcd b8be ea38 04bf 8eef 2bbd

feat_extract.0.bias f4 [64]
0.17284854 -0.08071366 -0.28909272 -0.13394828 -0.05375708 -0.5220612 0.5611126 0.5796459
-0.4545469 0.73551637 0.33530235 -0.66332793 -0.5407901 0.15734378 0.5507446 0.7091115
0.39028493 0.046675187 -0.6860908 0.07289564 0.63354045 0.068569265 0.4859366 0.30941638
0.6735303 0.37889487 -0.27085468 -0.18138571 0.58223504 -0.30686745 -0.63855106 0.43147746
-0.6073321 -0.29424894 -0.035264798 0.2901967 0.6667119 0.60858583 -0.5030063 -0.34489375
-0.70711935 -0.30000943 0.64247495 0.24904065 0.51911587 0.26319778 -0.6517752 -0.6241296
-0.57579434 -0.24594335 -0.33971354 0.08202867 0.6690616 -0.64465547 0.15727656 0.12163235
-0.18633679 0.48538244 -0.72538716 -0.30148754 0.5967302 0.07619635 -0.7072809 -0.4330306
00000000: 35ff 303e 344d a5bd f603 94be bd29 09be
00000010: 6230 5cbd cea5 05bf 13a5 0f3f ac63 143f
00000020: 5fba e8be cd4a 3c3f c0ac ab3e dccf 29bf
00000030: 3871 0abf ba1e 213e 99fd 0c3f 5588 353f
00000040: 6dd3 c73e 7b2e 3f3d a6a3 2fbf 4f4a 953d
00000050: b52f 223f 0b6e 8c3d afcc f83e d36b 9e3e
00000060: 7b6c 2c3f 82fe c13e 77ad 8abe 2dbd 39be
00000070: 5b0d 153f bb1d 9dbe 1578 23bf 9dea dc3e
00000080: 1e7a 1bbf cca7 96be d271 10bd a994 943e
00000090: a2ad 2a3f 48cc 1b3f 05c5 00bf ea95 b0be
000000a0: c605 35bf d69a 99be 3d79 243f 8304 7f3e
000000b0: c7e4 043f dcc1 863e bdda 26bf f5c6 1fbf
000000c0: 4267 13bf 93d8 7bbe efee adbe a6fe a73d
000000d0: 9f47 2b3f 2408 25bf 1b0d 213e 621a f93d
000000e0: 12cf 3ebe 0c84 f83e f9b2 39bf 935c 9abe
000000f0: 4fc3 183f d50c 9c3d 5c10 35bf 30b6 ddbe

feat_extract.2.weight f4 [64, 64]
0.0065599084 -0.030039703 -0.0021174331 -0.056788467 0.056906153 0.083960615 0.16493577 0.12218323
-0.11092363 -0.056554224 0.036123276 0.0351105 0.034271214 -0.040952243 -0.104469106 0.13291426
-0.032187507 -0.051480852 -0.029790279 -0.16500723 -0.070568174 0.06308965 0.13452208 0.009182996
0.032746058 -0.024935372 -0.06813023 0.09096441 0.07782643 -0.0060536736 0.028015198 -0.14688997
-0.020428704 -0.04994797 0.0014463344 -0.14885299 -0.06620885 0.014184083 -0.0533843 -0.08329862
-0.03860721 -0.11969931 0.11695259 -0.030222524 0.07860126 -0.038100913 -0.12803978 -0.09715418
-0.099013545 0.0046217684 -0.038815048 -0.113581024 0.11138666 0.02500393 0.06907693 -0.054284085
0.15217833 0.123782046 -0.04077446 0.010712358 0.17762844 -0.05032296 -0.012439059 -0.08487993
0.0874902 0.105799444 -0.0068654227 0.03167645 0.116315365 -0.11187196 0.009860477 -0.0022167019
-0.15560196 -0.123008065 0.002889588 -0.11050995 -0.021804644 0.08213814 0.024318838 0.003161166
0.13531248 -0.13611627 0.17925814 0.012595563 0.088523395 0.08186956 -0.08968977 -0.08932302
0.01698889 -0.11314023 0.13479626 0.0369747 -0.1013054 0.10790365 0.07176238 0.07670315
-0.023221822 -0.07416151 0.023363475 -0.112590045 -0.058911905 0.06014643 0.0015884078 0.029083379
0.05365238 0.08090693 0.076023236 -0.03888445 0.004992618 -0.082914256 -0.052828167 0.15019916
0.07517634 -0.12330551 0.018118275 -0.06418592 0.10169638 0.02451993 0.07354495 -0.008226214
0.1536881 0.0144399 -0.0700054 0.036220662 0.07561522 -0.009873122 0.03353894 0.15570268
-0.06715666 -0.07780458 -0.09131375 -0.15141416 0.07842565 0.07173312 0.06765792 0.01902424
0.025519472 -0.11809889 0.02088016 -0.05206757 -0.096379 0.10988276 0.041997463 0.05713207
-0.034885515 0.11427212 0.013442923 0.0068902452 -0.16229358 0.00057322806 0.048708033 0.050747704
-0.03185988 0.108140215 -0.06336614 0.012946326 -0.1078909 -0.13581163 -0.00396948 0.09875578
0.020210028 0.11867556 0.08647193 0.115566075 -0.12868534 -0.06740591 -0.13715878 -0.048721477
-0.13842535 0.13551478 -0.05555789 0.08846759 -0.027981872 -0.076536365 0.047309462 -0.08484587
-0.023906427 -0.07768307 0.10300366 0.033136103 0.019779464 -0.04529691 -0.06810351 -0.0913564
0.10006635 -0.003944079 0.025094345 0.044414382 -0.03148009 -0.045085613 0.08552022 0.0828472
0.037511226 -0.15416174 0.15692471 0.17894992 -0.1608756 0.152261 0.04504691 0.121405914
0.15829599 0.002852843 0.1130142 0.16490926 -0.074278295 0.10269318 0.18476543 -0.09889408
-0.083713435 -0.048566706 -0.081543826 -0.008424224 -0.015728794 0.016934108 -0.10981977 -0.14924784
0.14089577 0.053418893 -0.18960896 -0.12900345 0.07188377 -0.051502187 -0.09478496 -0.022766627
0.062334806 -0.05082293 0.033646654 0.15995115 -0.09449942 -0.20476463 -0.088900074 -0.05903314
0.019570528 -0.1458654 0.047640823 0.0350977 0.13109665 -0.15901765 -0.014590474 0.007895178
-0.084415145 0.04076536 -0.13584149 -0.011244795 -0.169774 0.02180871 -0.023120696 0.059001412
-0.16401806 -0.07314847 0.08387546 -0.02023921 -0.15904112 -0.04861366 0.039432842 -0.032630414
00000000: 80f4 d63b d315 f6bc a2c4 0abb 069b 68bd
00000010: 6d16 693d 8bf3 ab3d ece4 283e 343b fa3d
00000020: ee2b e3bd 67a5 67bd 00f6 133d 07d0 0f3d
00000030: f95f 0c3d 8abd 27bd e6f3 d5bd ad1a 083e
00000040: 0cd7 03bd 96dd 52bd be0a f4bc a8f7 28be
00000050: 0c86 90bd 2535 813d 28c0 093e 4774 163c
00000060: bb20 063d 4445 ccbc dd87 8bbd 8c4b ba3d
00000070: 7763 9f3d e55d c6bb 2180 e53c 536a 16be
00000080: 195a a7bc 3e96 4cbd ee92 bd3a eb6c 18be
00000090: 8198 87bd 5b64 683c 7fa9 5abd 7898 aabd
000000a0: 9822 1ebd e924 f5bd d784 ef3d 3a95 f7bc
000000b0: b3f9 a03d b40f 1cbd dc1c 03be c5f8 c6bd
000000c0: 9dc7 cabd 3472 973b 87fc 1ebd 2b9d e8bd
000000d0: b01e e43d 0bd5 cc3c 3578 8d3d fd58 5ebd
000000e0: a3d4 1b3e 7181 fd3d 1f03 27bd e382 2f3c
000000f0: 3be4 353e 731f 4ebd 32cd 4bbc 87d5 adbd
00000100: 102e b33d 61ad d83d 57f7 e0bb 2abf 013d
00000110: c036 ee3d 201d e5bd d78d 213c 1646 11bb
00000120: 1f56 1fbe a7eb fbbd 3e5f 3d3b 0a53 e2bd
00000130: a79f b2bc 0b38 a83d 4d38 c73c 912b 4f3b
00000140: 5b8f 0a3e 1062 0bbe 728f 373e 9f5d 4e3c
00000150: c14b b53d 3aab a73d 45af b7bd fdee b6bd
00000160: 492c 8b3c 11b6 e7bd 0808 0a3e c872 173d
00000170: 3579 cfbd 97fc dc3d 28f8 923d 8b16 9d3d
00000180: b13b bebc fde1 97bd c264 bf3c 9c95 e6bd
00000190: 9c4d 71bd 1a5c 763d 1f32 d03a 4440 ee3c
000001a0: 99c2 5b3d 88b2 a53d 12b2 9b3d 4d45 1fbd
000001b0: 1e99 a33b f3ce a9bd 5962 58bd cfcd 193e
000001c0: 0ef6 993d 9987 fcbd c76c 943c e873 83bd
000001d0: 3146 d03d 05de c83c bc9e 963d 3ec7 06bc
000001e0: 6a60 1d3e 5595 6c3c fe5e 8fbd 1e5c 143d
000001f0: 27dc 9a3d e0c2 21bc 2160 093d 8670 1f3e
00000200: 6e89 89bd 0258 9fbd b402 bbbd 500c 1bbe
00000210: a19d a03d d0e8 923d 3c90 8a3d b9d8 9b3c
00000220: 360e d13c d5dd f1bd df0c ab3c ce44 55bd
00000230: 5a62 c5bd 360a e13d 8805 2c3d 5103 6a3d
00000240: 1de4 0ebd 8007 ea3d b53f 5c3c 91c7 e13b
00000250: 4a30 26be af44 163a 1382 473d d3dc 4f3d
00000260: 817f 02bd 9e78 dd3d 1bc6 81bd d41c 543c
00000270: e7f5 dcbd 3412 0bbe 6912 82bb 7840 ca3d
00000280: 808f a53c 2c0c f33d 3218 b13d e8ad ec3d
00000290: 17c6 03be 1c0c 8abd 5a73 0cbe 2c90 47bd
000002a0: 60bf 0dbe 63c4 0a3e ac90 63bd 7f2e b53d
000002b0: 3d3a e5bc 19bf 9cbd 91c7 413d acc3 adbd
000002c0: 69d7 c3bc 4d18 9fbd 95f3 d23d b9b9 073d
000002d0: 8b08 a23c 4189 39bd da79 8bbd 1019 bbbd
000002e0: 96ef cc3d 553d 81bb a892 cd3c dbeb 353d
000002f0: 44f1 00bd b1ab 38bd 3a25 af3d cbab a93d
00000300: 5fa5 193d 93dc 1dbe dfb0 203e a63e 373e
00000310: 93bc 24be 4fea 1b3e 1c83 383d aaa3 f83d
00000320: 5818 223e c3f6 3a3b fd73 e73d f9dd 283e
00000330: 381f 98bd cd50 d23d 2633 3d3e fb88 cabd
00000340: f371 abbd e2ed 46bd 7300 a7bd c205 0abc
00000350: acd9 80bc 66b9 8a3c 30e9 e0bd 6dd4 18be
00000360: fb46 103e c5cd 5a3d da28 42be 7b19 04be
00000370: cc37 933d f5f3 52bd 9e1e c2bd 1481 babc
00000380: c852 7f3d b42b 50bd 13d1 093d 3cca 233e
00000390: e988 c1bd d2ad 51be 3e11 b6bd bccc 71bd
000003a0: 5f52 a03c bd5d 15be 0623 433d 9bc2 0f3d
000003b0: 333e 063e 86d5 22be e20c 6fbc c75a 013c
000003c0: d9e1 acbd 94f9 263d 081a 0bbe 173c 38bc
000003d0: 3cd9 2dbe 2ea8 b23c 9d67 bdbc 77ab 713d
000003e0: 5af4 27be ddce 95bd e6c6 ab3d b3cc a5bc
000003f0: addb 22be 1e1f 47bd 5584 213d 78a7 05bd

feat_extract.2.bias f4 [64]
0.002103625 0.022872632 0.10042458 -0.024256332 0.020592967 0.016882481 -0.0068976283 0.009124629
-0.014789372 0.07321901 0.11146616 -0.054760125 -0.14870155 0.029409794 -0.121435456 -0.05182497
0.00027874135 -0.00998601 -0.07805261 -0.06673393 0.010669665 0.093283154 -0.062218156 0.057119664
-0.1509644 -0.081986465 -0.04877277 0.011483964 0.0019872896 -0.062424924 0.11182152 -0.024729356
0.15019627 -0.14946438 0.19463386 -0.036526993 0.10758497 -0.00842384 0.04816114 -0.068044834
0.07405436 -0.03596333 0.12959388 0.012563565 -0.08553252 -0.11672798 -0.020281587 -0.13788919
0.11627068 -0.06348207 0.12494771 0.09206534 -0.07088572 0.06470028 -0.008095439 -0.09748142
-0.008189346 0.052483995 0.0077661267 0.06937652 -0.12490699 0.1346379 -0.09626368 0.037003398
00000000: f9dc 093b 635f bb3c 67ab cd3d 37b5 c6bc
00000010: 95b2 a83c 214d 8a3c 8005 e2bb 787f 153c
00000020: 1f4f 72bc d9f3 953d 5f48 e43d 274c 60bd
00000030: 3845 18be cfec f03c 27b3 f8bd 6b46 54bd
00000040: 0824 9239 5d9c 23bc 0cda 9fbd ccab 88bd
00000050: d2cf 2e3c 3d0b bf3d 77d8 7ebd 4ff6 693d
00000060: 6996 1abe 85e8 a7bd f5c5 47bd 3c27 3c3c
00000070: 303d 023b 47b1 7fbd ae02 e53d 3895 cabc
00000080: 0dcd 193e 310d 19be 194e 473e 549d 15bd
00000090: 8255 dc3d 2504 0abc 9e44 453d 175b 8bbd
000000a0: d0a9 973d 494e 13bd 42b4 043e 69d7 4d3c
000000b0: ad2b afbd 140f efbd 9225 a6bc d332 0dbe
000000c0: 531f ee3d e302 82bd 96e4 ff3d c18c bc3d
000000d0: 882c 91bd 9581 843d bba2 04bc 57a4 c7bd
000000e0: 9b2c 06bc 75f9 563d fe7a fe3b 4715 8e3d
000000f0: 3ccf ffbd 85de 093e e425 c5bd e090 173d

feat_extract.4.weight f4 [64, 64]
0.071406856 -0.17744233 -0.060281288 -0.039231565 0.020916179 0.059568133 -0.07240402 -0.040086005
-0.15993902 0.1428845 -0.03139761 0.11677094 0.019161494 0.18865538 -0.11121404 -0.022807581
-0.0505227 -0.018063009 0.059708454 0.18634033 0.027419992 0.0569002 -0.064296395 0.15378278
0.04163646 0.11104495 0.059427258 0.07831223 0.10339661 -0.065125816 0.06963543 -0.11400239
0.12124208 0.13116351 -0.034676824 -0.09300889 0.13803318 -0.01335576 0.09231487 0.1916764
0.03077336 -0.08270806 -0.004433967 0.009947852 0.049058143 0.034332875 0.0506369 -0.1170627
0.10351732 -0.075893655 -0.027409775 -0.14453338 -0.018966027 -0.06673237 0.0823152 -0.089834176
0.14009595 -0.067044795 -0.024933957 -0.05406989 -0.14166518 -0.1871989 -0.039644167 -0.08409798
-0.04298305 0.06900066 -0.10583964 -0.032243103 0.048445895 -0.013207919 0.10075942 0.06267263
0.16471283 0.056519996 0.0643425 -0.14808518 0.12737326 -0.009155024 0.056958675 -0.112222426
-0.036744222 -0.034496237 0.051888358 -0.023087772 -0.024365578 -0.13679868 0.15679228 0.03969103
0.11380438 -0.08375764 0.107709065 -0.035045072 0.11792807 0.04293948 0.054404456 0.1288772
0.14493728 0.11825008 0.11945201 0.011656407 -0.17630017 0.0064814435 -0.19187047 -0.003683454
-0.030220293 0.1774497 0.11367357 0.2055213 -0.051002458 0.017913634 -0.023164615 0.1050246
-0.14466347 0.038228914 -0.044293616 0.044088423 0.017321251 -0.07544553 -0.15211727 0.05397263
-0.078540035 0.11165004 -0.038151342 -0.08984987 0.13311289 -0.09536653 -0.0064101927 0.037279867
-0.030734308 -0.01760783 0.005730636 -0.010847619 -0.009435754 0.033577763 -0.0049699936 -0.14330384
-0.13053426 0.0945791 0.10103166 -0.07193942 -0.0825761 0.04538475 -0.111426555 0.0060127922
0.006369028 0.024346814 0.07959185 -0.0015503434 -0.07641607 0.09237674 0.07192488 0.14777686
0.046473935 -0.021905959 0.0793445 0.008597484 0.10570035 -0.007328272 0.16272373 0.029768638
-0.0024035445 0.15088773 -0.020237807 0.11384244 0.13654222 -0.14072031 -0.009928331 -0.045749255
0.07236372 -0.05468602 0.03259592 0.038402952 -0.04231355 0.06126736 -0.17608242 -0.1306579
0.04537235 0.039448526 0.019957628 -0.11366495 -0.06699377 0.03875757 -0.03785839 0.055665392
0.124153964 -0.08851488 0.18437387 -0.011569342 0.047728885 -0.092107885 -0.106997214 -0.17446423
0.07629607 -0.07013046 -0.015822344 -0.07146904 0.12341686 0.18010227 -0.04883729 -0.103542894
-0.039571077 -0.103300415 -0.042133123 -0.13923879 -0.018202791 0.042562317 0.037296437 0.024377087
0.11376644 -0.11492516 0.07761473 0.08764916 0.060823865 -0.1829358 0.11730113 0.07058988
0.098611414 0.10140172 0.17720717 0.17367806 -0.010595419 -0.088240504 -0.06262755 0.06092515
0.113803804 0.05451895 -0.030806884 0.087913 -0.025771946 0.018124297 -0.1114426 0.08815786
0.08620616 0.02292939 0.04457476 0.0055149673 0.11857526 0.034792084 -0.11610044 0.04606331
-0.03213306 -0.02007832 -0.087122366 0.044206735 -0.10009397 -0.04959185 -0.04835376 -0.027912108
-0.033206612 0.10925953 0.15898357 0.10819656 0.09319285 -0.058569048 0.039307687 0.04349526
00000000: c23d 923d 71b3 35be 83e9 76bd 47b1 20bd
00000010: 6858 ab3c b7fd 733d 8f48 94bd 3931 24bd
00000020: 0ec7 23be 5050 123e c89a 00bd 9a25 ef3d
00000030: 91f8 9c3c e02e 413e 30c4 e3bd f7d6 babc
00000040: e4f0 4ebd e0f8 93bc da90 743d 00d0 3e3e
00000050: e49f e03c 2f10 693d d4ad 83bd 3c79 1d3e
00000060: fe8a 2a3d 896b e33d ff69 733d 2a62 a03d
00000070: 9ac1 d33d af60 85bd 059d 8e3d 167a e9bd
00000080: c54d f83d ba4f 063e 4909 0ebd 727b bebd
00000090: 9258 0d3e 1ed2 5abc 940f bd3d d146 443e
000000a0: 6a18 fc3c d862 a9bd d04a 91bb 51fc 223c
000000b0: 31f1 483d a1a0 0c3d a368 4f3d 92be efbd
000000c0: e300 d43d 226e 9bbd 778a e0bc 8f00 14be
000000d0: a45e 9bbc fbaa 88bd df94 a83d fbfa b7bd
000000e0: 5075 0f3e c84e 89bd 4c42 ccbc 6478 5dbd
000000f0: ad10 11be 12b1 3fbe ec61 22bd 903b acbd
00000100: ff0e 30bd 3850 8d3d 74c2 d8bd 5811 04bd
00000110: 346f 463d 0766 58bc f45a ce3d 825a 803d
00000120: 7baa 283e 8381 673d 00c6 833d a4a3 17be
00000130: 236e 023e f4fe 15bc 804d 693d dfd4 e5bd
00000140: 1c81 16bd ed4b 0dbd e388 543d 9122 bdbc
00000150: 529a c7bc f414 0cbe 288e 203e 1093 223d
00000160: 4512 e93d 2089 abbd 9296 dc3d 6c8b 0fbd
00000170: 4684 f13d 4fe1 2f3d 35d7 5e3d 62f8 033e
00000180: 706a 143e 192d f23d 41a3 f43d 84fa 3e3c
00000190: 0888 34be 4a62 d43b b179 44be 1a66 71bb
000001a0: 8c90 f7bc 60b5 353e b0cd e83d 2d74 523e
000001b0: f4e7 50bd 9dbf 923c b8c3 bdbc 2317 d73d
000001c0: a922 14be ec95 1c3d 396d 35bd 1096 343d
000001d0: 4ce5 8d3c 3083 9abd a1c4 1bbe 6812 5d3d
000001e0: 99d9 a0bd c7a8 e43d 9544 1cbd 3503 b8bd
000001f0: bf4e 083e 874f c3bd 980c d2bb c6b2 183d
00000200: 84c6 fbbc 4c3e 90bc 0fc8 bb3b 36ba 31bc
00000210: 6c98 1abc d688 093d 54db a2bb 3ebe 12be
00000220: c6aa 05be b0b2 c13d b0e9 ce3d fa54 93bd
00000230: a91d a9bd 5ce5 393d 9b33 e4bd f506 c53b
00000240: 47b3 d03b f872 c73c 0d01 a33d e434 cbba
00000250: 0780 9cbd 0430 bd3d 5a4d 933d d152 173e
00000260: 745b 3e3d 2074 b3bc 5f7f a23d 76dc 0c3c
00000270: 6d79 d83d 0022 f0bb 0da1 263e 5cdd f33c
00000280: c984 1dbb 5082 1a3e c2c9 a5bc 3a26 e93d
00000290: b9d1 0b3e fc18 10be 70aa 22bc 9263 3bbd
000002a0: 6e33 943d 73fe 5fbd 4d83 053d 6a4c 1d3d
000002b0: f950 2dbd 7cf3 7a3d f34e 34be 2fcb 05be
000002c0: 5bd8 393d c794 213d 2e7e a33c 2bc9 e8bd
000002d0: 0834 89bd 42c0 1e3d 6611 1bbd 6501 643d
000002e0: 6f44 fe3d 4a47 b5bd 81cc 3c3e 568d 3dbc
000002f0: 5d7f 433d 0fa3 bcbd 5b21 dbbd c0a6 32be
00000300: 1d41 9c3d 8fa0 8fbd dc9d 81bc 5c5e 92bd
00000310: fbc1 fc3d bb6c 383e 9c09 48bd 4c0e d4bd
00000320: 4815 22bd 2b8f d3bd c893 2cbd 9d94 0ebe
00000330: 051e 95bc d355 2e3d 26c4 183d 75b2 c73c
00000340: 61fe e83d e25d ebbd 79f4 9e3d 6781 b33d
00000350: 7222 793d 8653 3bbe 933b f03d 6d91 903d
00000360: c8f4 c93d b4ab cf3d cc75 353e a9d8 313e
00000370: 6998 2dbc 70b7 b4bd df42 80bd a68c 793d
00000380: f811 e93d 434f 5f3d b85e fcbc bb0b b43d
00000390: b01f d3bc 6879 943c 053c e4bd 1c8c b43d
000003a0: db8c b03d 6bd6 bb3c 0694 363d e6b6 b43b
000003b0: 96d7 f23d 2582 0e3d 11c6 edbd e2ac 3c3d
000003c0: f59d 03bd 4a7b a4bc 366d b2bd 1f12 353d
000003d0: 11fe ccbd d320 4bbd 980e 46bd efa7 e4bc
000003e0: a803 08bd 76c3 df3d 97cc 223e 2896 dd3d
000003f0: e5db be3d 19e6 6fbd 1901 213d 1628 323d

feat_extract.4.bias f4 [64]
0.115154766 -0.013640882 0.18154141 -0.031812165 -0.0668515 -0.03375876 -0.018501932 0.19791223
-0.124052785 0.12966073 0.06238046 0.17672455 0.0795892 -0.14973925 0.06925424 0.062247563
0.018126259 0.1303626 0.12966341 -0.027040377 0.19208556 0.17848383 0.15724413 0.13988201
0.080282316 0.04922965 -0.090034656 -0.08970477 -0.002610714 -0.027095767 -0.02458795 -0.118360005
0.082321905 0.15544659 0.07182681 0.011989234 -0.057434727 -0.019965721 -0.01441735 0.117804796
-0.028440226 -0.048832964 0.031628553 -0.1743975 0.11308276 -0.055494703 -0.17784518 0.05980205
0.050350755 -0.027334586 0.12263651 -0.10514121 -0.018362286 0.017534446 0.040432375 0.07304027
-0.06035819 0.0077819494 -0.057704464 -0.05031438 0.15909518 0.15318896 0.028805045 -0.026388198
00000000: 43d6 eb3d 027e 5fbc fee5 393e 794d 02bd
00000010: 70e9 88bd a046 0abd 5d91 97bc 81a9 4a3e
00000020: 630f febd c8c5 043e a782 7f3d 48f7 343e
00000030: aaff a23d 3f55 19be 2bd5 8d3d 4df7 7e3d
00000040: 857d 943c c67d 053e 7cc6 043e c883 ddbc
00000050: 14b2 443e 77c4 363e 9b04 213e 3b3d 0f3e
00000060: 0e6b a43d 08a5 493d 1764 b8bd 22b7 b7bd
00000070: 8318 2bbb f1f7 ddbc ab6c c9bc bb66 f2bd
00000080: 6398 a83d 642d 1f3e ef19 933d 7e6e 443c
00000090: ad40 6bbd 278f a3bc c036 6cbc a443 f13d
000000a0: 7afb e8bc 1305 48bd f18c 013d 4295 32be
000000b0: ef97 e73d 6a4e 63bd 0c1d 36be fff2 743d
000000c0: 983c 4e3d c8ec dfbc da28 fb3d 4654 d7bd
000000d0: 816c 96bc 66a4 8f3c 6b9c 253d 2396 953d
000000e0: 263a 77bd b9ff fe3b 845b 6cbd 7416 4ebd
000000f0: d9e9 223e 91dd 1c3e 8ff8 eb3c 102c d8bc

feat_extract.6.weight f4 [64, 64]
-0.006886743 -0.0036158739 0.013506323 -0.064985886 0.12715717 -0.10594008 -0.1501801 0.063100666
-0.075016685 -0.015618811 0.0899998 0.0068916813 -0.061533008 -0.14587466 -0.021383699 0.051968943
0.1592874 0.10975878 -0.05029845 0.009515524 0.059777945 -0.051379707 0.11874849 0.032667994
-0.07470621 0.08304454 0.09249938 0.03845176 0.084503785 0.0016822722 0.08860994 -0.051700406
-0.017926494 0.14913818 0.016472995 0.05076782 -0.022422502 -0.060496286 -0.06419772 0.0018054945
0.03247044 -0.13314512 0.006180496 0.11217396 -0.084007576 -0.08261889 -0.16208172 -0.02242568
0.13968277 -0.14256532 0.037452023 -0.07148245 0.04934018 0.02554132 0.11926665 -0.071734816
-0.07506431 -0.028793871 0.18927012 -0.0336704 -0.08570081 -0.029865174 0.09978675 -0.08598603
-0.01276639 0.09874853 -0.08214555 -0.034856755 -0.04984785 -0.05252971 -0.1759475 0.12707107
0.09430025 0.13474125 0.072937295 0.05881022 -0.11972186 -0.093066156 0.17174415 -0.0056057363
0.16834958 -0.035792258 -0.017027093 -0.076296344 -0.043843165 0.048002712 -0.14083616 -0.041466363
0.10490153 -0.06610644 0.022161862 -0.035771724 -0.027875785 -0.15779334 0.0006929955 -0.041131612
-0.0011663506 -0.021499412 0.15337288 0.03407405 -0.12324311 -0.1509258 0.034595966 -0.017737385
0.05991639 -0.13454917 0.0025245196 0.027442962 0.01730724 -0.12905955 -0.055797815 0.10126434
0.12098078 0.070133805 0.0629682 -0.06355868 -0.1134997 0.04641086 -0.101327285 0.10886574
-0.14290147 0.013390681 -0.034936078 -0.09374745 -0.14095984 0.026530491 0.07403011 0.05757853
-0.054879807 0.12008239 -0.006078877 -0.026212178 -0.04811216 -0.108746044 0.028458053 -0.03860304
0.09886088 -0.00061906525 -0.18105514 -0.15390313 -0.0750959 0.010210041 -0.048030674 -0.070054695
0.07425449 -0.010266715 -0.090361916 -0.078954905 0.10134747 -0.10501973 -0.053177312 -0.13224736
-0.17239037 0.05456419 0.15566704 0.18353815 -0.03994618 -0.08630668 -0.021541847 0.051875528
0.13394845 0.024854979 -0.04519849 -0.14190903 0.050840195 -0.13164133 -0.20790298 -0.030068215
-0.026719766 0.03729957 -0.16440545 0.11846143 -0.083003454 0.0036021252 -0.043119773 0.084751725
0.1082817 0.06596603 0.099057734 0.12840039 -0.05662943 -0.054395802 0.06750031 -0.19511323
-0.0773024 0.05999633 -0.0146636525 0.044858605 -0.14775287 0.011685902 0.12651744 -0.008880945
-0.07781108 0.06571432 0.017069496 -0.0061289975 -0.09265425 -0.17193408 -0.052588776 0.12207583
0.03919157 0.10175561 -0.06611836 -0.12879652 -0.064855136 -0.0072502615 -0.016870411 -0.1684376
0.17892638 0.051544268 -0.16200982 -0.1484541 -0.008994421 -0.035873868 0.12369 -0.09758973
0.00535595 0.07597062 0.1219761 0.0149173075 0.005552592 0.13837866 0.15813957 0.20418185
0.049604442 0.006159439 -0.011715152 -0.13021015 0.054536637 -0.10124639 -0.21727501 -0.025816716
-0.06626875 0.013880807 0.011594286 0.0063154013 -0.1081323 -0.17720577 0.031693224 -0.049277198
-0.029648013 -0.21469554 0.11804381 0.13086042 -0.14066812 -0.06345391 -0.016657723 0.015794028
0.00091598375 0.0069683585 0.06219781 0.17908777 -0.083060496 0.022486478 0.0812828 -0.18449043
00000000: 30aa e1bb 4cf8 6cbb a049 5d3c 5217 85bd
00000010: 7d35 023e 1df7 d8bd d0c8 19be ec3a 813d
00000020: 59a2 99bd 0be6 7fbc d151 b83d 9dd3 e13b
00000030: 090a 7cbd 2b60 15be de2c afbc 63dd 543d
00000040: 3c1c 233e 36c9 e03d bf05 4ebd 00e7 1b3c
00000050: b8d9 743d 8773 52bd 6932 f33d e0ce 053d
00000060: 92ff 98bd 4113 aa3d 5170 bd3d 987f 1d3d
00000070: 5210 ad3d b07f dc3a 2179 b53d cec3 53bd
00000080: 95da 92bc aeb7 183e 60f2 863c ebf1 4f3d
00000090: 65af b7bc f4ca 77bd 187a 83bd 58a6 ec3a
000000a0: b9ff 043d 3257 08be c285 ca3b 76bb e53d
000000b0: 2a0c acbd 1834 a9bd c0f8 25be 0fb6 b7bc
000000c0: 0009 0f3e a5fc 11be 4b67 193d 6465 92bd
000000d0: ee18 4a3d 083c d13c 1342 f43d b4e9 92bd
000000e0: 51bb 99bd 20e1 ebbc 07d0 413e f9e9 09bd
000000f0: e883 afbd cfa7 f4bc ff5c cc3d 7219 b0bd
00000100: 1f2a 51bc ab3c ca3d ed3b a8bd f5c5 0ebd
00000110: 422d 4cbd 6529 57bd 952b 34be eb1e 023e
00000120: 7d20 c13d 9cf9 093e 2660 953d fce2 703d
00000130: bc30 f5bd 7899 bebd b3dd 2f3e 53b0 b7bb
00000140: d563 2c3e e79a 12bd 677c 8bbc 4241 9cbd
00000150: e494 33bd 7e9e 443d 5b37 10be a2d8 29bd
00000160: 9dd6 d63d d062 87bd cb8c b53c 5f85 12bd
00000170: c25b e4bc 9494 21be 24aa 353a 9f79 28bd
00000180: 3be0 98ba 891f b0bc c80d 1d3e 3b91 0b3d
00000190: e266 fcbd 4b8c 1abe 80b4 0d3d fe4d 91bc
000001a0: e36a 753d 42c7 09be 6972 253b 10d0 e03c
000001b0: eac7 8d3c 3028 04be 408c 64bd ae63 cf3d
000001c0: c5c4 f73d 50a2 8f3d 79f5 803d 0e2b 82bd
000001d0: 8872 e8bd 5019 3e3d ae84 cfbd 00f5 de3d
000001e0: c354 12be 9664 5b3c 2219 0fbd aafe bfbd
000001f0: c757 10be 7956 d93c 199d 973d 77d7 6b3d
00000200: a6c9 60bd c2ed f53d 5131 c7bb ecba d6bc
00000210: 4211 45bd 3fb6 debd dd20 e93c 391e 1ebd
00000220: 9377 ca3d c448 22ba 8566 39be c898 1dbe
00000230: e1cb 99bd 0448 273c d0bb 44bd d678 8fbd
00000240: bd12 983d b935 28bc ab0f b9bd 1cb3 a1bd
00000250: 438f cf3d 9614 d7bd 74d0 59bd da6b 07be
00000260: 1a87 30be b37e 5f3d 2e67 1f3e 6df1 3b3e
00000270: 9b9e 23bd 8fc1 b0bd 8778 b0bc 6f7b 543d
00000280: c829 093e ab9c cb3c 0d22 39bd 9a50 11be
00000290: cf3d 503d fccc 06be 85e4 54be 9e51 f6bc
000002a0: 69e3 dabc 6fc7 183d e759 28be e89b f23d
000002b0: b7fd a9bd a211 6c3b 5c9e 30bd 5092 ad3d
000002c0: ccc2 dd3d 3319 873d c8de ca3d 647b 033e
000002d0: 43f4 67bd 22ce 5ebd 9a3d 8a3d c3cb 47be
000002e0: b850 9ebd b6be 753d d13f 70bc a8bd 373d
000002f0: 874c 17be 3a76 3f3c ca8d 013e 6281 11bc
00000300: 6a5b 9fbd 3b95 863d 54d5 8b3c c2d5 c8bb
00000310: 83c1 bdbd 7d0f 30be 5467 57bd e502 fa3d
00000320: 5787 203d 3f65 d03d 1069 87bd 3ce3 03be
00000330: c5d2 84bd 9a93 edbb d133 8abc e87a 2cbe
00000340: 7a38 373e 1520 533d e7e5 25be 5a04 18be
00000350: 565d 13bc 7af0 12bd 2f51 fd3d 20dd c7bd
00000360: f780 af3b 7c96 9b3d 9bce f93d b967 743c
00000370: 85f2 b53b 23b3 0d3e 57ef 213e 0c15 513e
00000380: 072e 4b3d 1fd5 c93b e9f0 3fbc cf55 05be
00000390: cf61 5f3d 445a cfbd 577d 5ebe 947d d3bc
000003a0: e9b7 87bd 536c 633c f6f5 3d3c 6df1 ce3b
000003b0: 7874 ddbd 6e75 35be c1d0 013d e3d6 49bd
000003c0: 64e0 f2bc 26d9 5bbe f4c0 f13d 4600 063e
000003d0: 4e0b 10be 20f4 81bd c775 88bc 7a62 813c
000003e0: a11e 703a d456 e43b 21c3 7e3d c962 373e
000003f0: 9f1b aabd 9035 b83c 9977 a63d 0feb 3cbe

feat_extract.6.bias f4 [64]
-0.06513069 0.0910326 -0.0639828 -0.10804086 -0.05816346 -0.04475447 -0.02294871 0.08976127
-0.13261275 0.014914214 -0.016614074 0.10273901 -0.033776097 0.114392705 0.10833523 -0.1805256
-0.08488023 -0.1681994 0.061182946 0.081940085 0.03122094 0.058746178 -0.059061345 -0.1013507
-0.03199629 -0.19874646 0.08156698 0.028994292 0.032938473 -0.072639845 -0.014485585 -0.099717975
0.06525855 0.081710905 -0.1340341 0.06252796 0.0019813806 0.038848817 0.09231121 0.1722947
0.043757915 0.10929401 -0.09945805 -0.012690377 -0.17050333 -0.045270484 -0.02389143 0.1609467
0.054402422 0.076824285 -0.01827963 0.097496144 -0.025971796 -0.15535025 -0.12807958 -0.08958355
0.13798776 0.09238583 -0.07876551 0.08487113 0.05672996 0.066474535 0.042443804 -0.010111483
00000000: 3d63 85bd 4d6f ba3d 6a09 83bd 8744 ddbd
00000010: cf3c 6ebd 7750 37bd effe bbbc c2d4 b73d
00000020: a3cb 07be bf5a 743c 3d1a 88bc d468 d23d
00000030: ce58 0abd b946 ea3d dcde dd3d b4db 38be
00000040: b0d5 adbd 773c 2cbe f89a 7a3d 34d0 a73d
00000050: 0fc3 ff3c d59f 703d 4fea 71bd f590 cfbd
00000060: 8b0e 03bd 3184 4bbe 970c a73d 7085 ed3c
00000070: 7eea 063d 33c4 94bd f254 6dbc f038 ccbd
00000080: 46a6 853d 0c58 a73d 3c40 09be a90e 803d
00000090: 0dda 013b f01f 1f3d a90d bd3d 066e 303e
000000a0: 803b 333d 8ad5 df3d aab0 cbbd 4deb 4fbc
000000b0: 6d98 2ebe 8b6d 39bd f6b7 c3bc 36cf 243e
000000c0: 13d5 5e3d 0d56 9d3d 2abf 95bc 0fac c73d
000000d0: cec2 d4bc 2314 1fbe 4b27 03be 9577 b7bd
000000e0: aa4c 0d3e c834 bd3d d04f a1bd ead0 ad3d
000000f0: ad5d 683d cd23 883d 8ed9 2d3d a2aa 25bc

encoder_layers.0.attn.linears.0.weight f4 [64, 64]
0.02266436 -0.082836635 0.12546109 0.16169658 0.077980705 -0.038310386 -0.14570495 0.030537207
-0.14755583 -0.025795855 -0.12964748 -0.021639114 0.037598964 0.10297705 -0.012460417 0.13121338
-0.07190317 -0.038787317 -0.001904421 0.0030183762 -0.15011545 -0.07742123 -0.05374901 -0.11137067
-0.035847776 -0.09930039 0.042373586 -0.14323297 -0.08479309 0.0015288781 -0.016123898 -0.03908358
0.034780424 0.13368632 -0.09904273 0.15725182 0.107242934 -0.11811658 0.052213557 -0.12854247
0.05660642 0.13307258 0.00091975194 0.031371437 -0.1456096 -0.09075432 0.069055624 0.030972037
0.056687646 -0.019177053 0.12596366 -0.022952234 -0.04524869 0.005567264 -0.017954718 -0.1149985
-0.1756824 0.16834302 -0.07647561 -0.13698977 -0.13244133 -0.0820323 -0.020673981 0.08286045
-0.036014188 0.013894513 -0.027425075 -0.16046563 -0.008756071 -0.05181156 0.0571995 -0.073203936
-0.1165043 0.14147554 0.15516204 -0.085081 -0.08875707 -0.07443284 0.062274404 0.10800466
0.076044776 -0.0704224 -0.11788078 0.18645038 0.100521825 0.15605058 -0.13113183 -0.1201798
0.1145548 0.1400604 -0.042379245 0.008618008 -0.0011789842 -0.017422907 0.041929595 0.046961326
-0.11700128 -0.17420442 -0.03876833 -0.07996832 -0.101413436 0.06376043 0.24784696 0.021205863
0.16066058 -0.014133353 -0.07329115 -0.05760243 -0.043506097 0.030312603 0.103751674 0.0667703
0.091392055 0.0313428 -0.03781758 -0.023571521 0.07150518 0.049462553 0.040246014 -0.119528316
0.12848876 -0.0013843194 0.13799733 0.1323277 0.08965392 0.04965091 -0.11139059 -0.14025949
0.03005696 -0.12569763 0.18374869 0.15062967 0.18065332 -0.055690177 0.005193663 -0.103262305
-0.0053974413 -0.13769992 -0.1505571 -0.0871092 -0.045525752 -0.07303667 0.10685655 0.057982545
-0.19323969 0.16785072 0.16605008 -0.08378842 0.026518628 0.09304389 0.112761624 0.030771343
0.1502092 -0.04533365 -0.009451636 -0.089622654 -0.051551983 0.13248622 0.060370322 -0.0070433817
-0.089251064 0.13273294 0.04462324 0.11732865 -0.05565242 -0.15714747 -0.22782116 -0.12627688
-0.115800016 -0.02954619 0.072730966 0.063781485 -0.015209129 0.0062296614 -0.021567198 0.112458356
0.08165899 0.0004541151 0.08679092 0.030178487 0.020610845 -0.16560012 0.06273262 -0.0064948965
-0.13766672 -0.020511547 -0.14995116 0.03808771 -0.15108007 -0.03762537 -0.026715843 -0.03671138
0.1163195 -0.037127394 0.1417619 0.14508928 0.012405815 -0.17769174 -0.097461544 -0.06872041
-0.105140835 -0.17497046 0.002694916 -0.11892264 0.113847405 0.0069338623 -0.043114327 0.023120783
-0.1829893 0.027429117 0.02124916 -0.15951797 -0.0712508 -0.16658321 0.019618342 -0.10395701
-0.025580468 -0.15870044 0.055952553 -0.096939266 -0.12874125 0.15366583 -0.045745585 -0.074044205
-0.11565735 0.209787 -0.051575348 0.14975177 0.028147724 -0.0039688917 -0.11331036 -0.020406613
-0.07279908 0.0270451 -0.077724986 0.033103406 0.004716889 0.020303264 0.11631764 -0.01188052
0.100245185 0.09121817 0.01187144 0.037088487 -0.02271627 0.004085779 0.07108094 0.14733961
0.030708594 -0.010761433 -0.08864592 -0.09960925 -0.017568974 0.019424189 0.12914594 0.12165611
00000000: 9caa b93c 41a6 a9bd df78 003e ca93 253e
00000010: 59b4 9f3d 5aeb 1cbd ae33 15be 2a29 fa3c
00000020: e018 17be d451 d3bc 4fc2 04be 8344 b1bc
00000030: 5f01 1a3d a2e5 d23d c726 4cbc cd5c 063e
00000040: f841 93bd 73df 1ebd c49d f9ba f3cf 453b
00000050: ddb7 19be 068f 9ebd ec27 5cbd 4e16 e4bd
00000060: 1ed5 12bd 015e cbbd ed8f 2d3d aaab 12be
00000070: 00a8 adbd a364 c83a 4416 84bc 1b16 20bd
00000080: eb75 0e3d 11e5 083e ead6 cabd 9f06 213e
00000090: 2fa2 db3d 1be7 f1bd e2dd 553d a3a0 03be
000000a0: 22dc 673d 2e44 083e 821b 713a 567f 003d
000000b0: af1a 15be 67dd b9bd 096d 8d3d 12b9 fd3c
000000c0: 4e31 683d 3219 9dbc 9efc 003e 5306 bcbc
000000d0: b156 39bd 986d b63b c615 93bc 5584 ebbd
000000e0: 16e6 33be 1d62 2c3e 3f9f 9cbd 0c47 0cbe
000000f0: b39e 07be 8d00 a8bd 7b5c a9bc bdb2 a93d
00000100: 9d83 13bd d0a5 633c 8daa e0bc 1a51 24be
00000110: a075 0fbc 5c38 54bd 064a 6a3d f2eb 95bd
00000120: ce99 eebd f7de 103e cce2 1e3e f33e aebd
00000130: 44c6 b5bd 3f70 98bd 7213 7f3d 8c31 dd3d
00000140: 5dbd 9b3d 9f39 90bd 7a6b f1bd d9ec 3e3e
00000150: 63de cd3d b9cb 1f3e 6c47 06be d420 f6bd
00000160: b59b ea3d fe6b 0f3e dc95 2dbd 8c32 0d3c
00000170: 2588 9aba 7cba 8ebc 5ebe 2b3d 855a 403d
00000180: 5e9e efbd a562 32be 8acb 1ebd 6ec6 a3bd
00000190: d9b1 cfbd d494 823d 98cb 7d3e ebb7 ad3c
000001a0: 3584 243e 948f 67bc ac19 96bd 87f0 6bbd
000001b0: 7333 32bd 2352 f83c c27b d43d debe 883d
000001c0: c22b bb3d 4f61 003d 9be6 1abd 1019 c1bc
000001d0: 4f71 923d 3f99 4a3d 01d9 243d 43cb f4bd
000001e0: 8f92 033e 0d72 b5ba 2c4f 0d3e ea80 073e
000001f0: 799c b73d c15e 4b3d c020 e4bd 2fa0 0fbe
00000200: 043a f63c e1b6 00be 9e28 3c3e aa3e 1a3e
00000210: 2ffd 383e 621b 64bd 9a2f aa3b 307b d3bd
00000220: 05dd b0bb 3501 0dbe a42b 1abe 4f66 b2bd
00000230: 3679 3abd 4094 95bd 9bd7 da3d 1b7f 6d3d
00000240: a0e0 45be 0fe1 2b3e 0809 2a3e 4399 abbd
00000250: 983d d93c cc8d be3d 91ef e63d 2f14 fc3c
00000260: 71d0 193e c7af 39bd 09db 1abc 158c b7bd
00000270: 2c28 53bd 78aa 073e df46 773d 2bcc e6bb
00000280: 43c9 b6bd 25eb 073e dcc6 363d 014a f03d
00000290: cbf3 63bd 44eb 20be f349 69be ba4e 01be
000002a0: 8f28 edbd da0a f2bc f9f3 943d de9f 823d
000002b0: b62f 79bc 3022 cc3b b1ad b0bc 9150 e63d
000002c0: d43c a73d 4c16 ee39 70bf b13d e038 f73c
000002d0: 13d8 a83c 1493 29be f679 803d 24d3 d4bb
000002e0: 81f8 0cbe d507 a8bc cc8c 19be dc01 1c3d
000002f0: bcb4 1abe 0f1d 1abd 2fdb dabc ac5e 16bd
00000300: eb38 ee3d e512 18bd 082a 113e 4992 143e
00000310: c241 4b3c d3f4 35be eb99 c7bd 49bd 8cbd
00000320: 1454 d7bd 752b 33be 309d 303b b78d f3bd
00000330: d428 e93d 7435 e33b a698 30bd cc67 bd3c
00000340: 8c61 3bbe 07b3 e03c b812 ae3c ae58 23be
00000350: f0eb 91bd ca94 2abe a5b6 a03c 6ae7 d4bd
00000360: 218e d1bc 5e82 22be 812e 653d 1888 c6bd
00000370: bfd4 03be 935a 1d3e b95f 3bbd 7da4 97bd
00000380: c3dd ecbd 67d2 563e ac40 53bd 8758 193e
00000390: 0e96 e63c 7a0d 82bb 430f e8bd c52b a7bc
000003a0: af17 95bd b08d dd3c 472e 9fbd 7097 073d
000003b0: 2290 9a3b 0853 a63c f137 ee3d 83a6 42bc
000003c0: 594d cd3d 98d0 ba3d 6e80 423c 19ea 173d
000003d0: 7917 babc 00e2 853b e292 913d 32e0 163e
000003e0: 9790 fb3c b950 30bc fe8b b5bd efff cbbd
000003f0: cfec 8fbc 7a1f 9f3c d53e 043e d726 f93d

encoder_layers.0.attn.linears.0.bias f4 [64]
-0.035079587 0.033807594 -0.12347716 -0.06288164 0.080831036 -0.07746685 -0.06328502 -0.070618965
-0.005322113 0.015577907 -0.10448536 0.017594244 -0.09672007 -0.017011853 0.15207501 -0.10942439
-0.1364504 -0.14196743 -0.04519404 0.15895605 0.15758765 0.14782643 0.020764552 0.039798982
0.098951355 -0.07109508 -0.02340001 0.054031175 0.09485143 0.023420025 -0.16808005 0.040347286
-0.0652917 0.12785554 0.018028606 -0.03124562 -0.051218994 -0.023319833 -0.020573344 0.10909555
0.019375416 0.020089265 0.1559483 0.23309729 -0.066867135 0.017886115 -0.047273707 -0.22471316
0.08003754 -0.16761705 -0.11451859 0.16134256 -0.27696228 -0.024080882 0.23024285 0.030605776
0.24303238 -0.049457453 -0.03417817 -0.040225647 -0.004313332 -0.19683176 -0.13894536 0.1129838
00000000: 9daf 0fbd d579 0a3d 98e1 fcbd 17c8 80bd
00000010: be8a a53d f1a6 9ebd 949b 81bd ada0 90bd
00000020: 1f65 aebb 7a3a 7f3c 6cfc d5bd ce21 903c
00000030: 2c15 c6bd 715c 8bbc 8db9 1b3e e519 e0bd
00000040: a7b9 0bbe e95f 11be 631d 39bd 60c5 223e
00000050: a85e 213e d05f 173e 6c1a aa3c 4204 233d
00000060: 02a7 ca3d 4c9a 91bd 61b1 bfbc cb4f 5d3d
00000070: 7741 c23d 5adb bf3c 2d1d 2cbe 3243 253d
00000080: a8b7 85bd 90ec 023e bab0 933c d1f6 ffbc
00000090: 02cb 51bd 3c09 bfbc 6e89 a8bc 7d6d df3d
000000a0: 31b9 9e3c 3e92 a43c e9b0 1f3e 0eb1 6e3e
000000b0: a3f1 88bd e785 923c 13a2 41bd 351b 66be
000000c0: b9ea a33d cea3 2bbe b988 eabd fc36 253e
000000d0: 00ce 8dbe 4545 c5bc c8c4 6b3e f7b8 fa3c
000000e0: 7bdd 783e e693 4abd 69fe 0bbd a6c3 24bd
000000f0: da56 8dbb 448e 49be b147 0ebe 0d64 e73d

encoder_layers.0.attn.linears.1.weight f4 [64, 64]
0.054459818 -0.042393025 0.04743313 0.21815999 0.033824928 -0.0828581 0.020221585 -0.027572442
-0.11427347 0.10523483 -0.13937917 0.033740282 -0.028253729 0.17731783 0.17047916 -0.007442571
0.08321309 -0.100925215 0.06481029 0.044098426 -0.10667502 0.06423718 -0.015967228 -0.017931217
-0.10811017 0.025776245 0.15161526 -0.0061294306 -0.06437265 -0.041827124 0.124073416 -0.035485428
-0.07935891 0.030865306 -0.16704413 0.018690575 -0.01665661 -0.12247465 -0.0882983 0.024032189
-0.06272913 0.06123387 0.1059977 -0.14159432 -0.1094204 0.10251345 -0.09904007 0.014235839
-0.086851604 0.061487813 0.17155536 0.09188237 -0.09129365 -0.016610375 0.004614039 -0.018958066
-0.00825302 0.11588254 -0.035867248 0.101361185 0.0155008705 -0.025949813 0.008984453 -0.068629056
-0.08529705 0.12284017 0.025891293 -0.050831407 0.070148125 -0.032816704 0.1467974 0.018392688
-0.048976995 0.064634584 0.038218483 -0.026282985 -0.13432735 -0.081532136 -0.16865264 0.03266636
0.13176395 -0.12610766 -0.015484271 -0.08564707 -0.07414888 0.07773686 0.042376976 -0.07062219
-0.020612335 -0.06561847 0.06831536 0.11023518 -0.029687943 -0.1681209 0.03935054 0.0858393
-0.009212277 0.032127563 -0.008989047 -0.060792647 -0.12465789 0.10040984 0.018360917 0.10620348
0.087655015 -0.022691622 -0.05410006 0.0031008103 0.11979601 0.09871045 -0.0036093607 -0.02516359
0.084674366 0.045414183 0.034667592 -0.0014266624 -0.10753607 -0.08078097 -0.009201821 -0.058059268
0.11506788 -0.041067615 -0.08429142 -0.0629784 0.12386094 -0.05485391 -0.17587109 -0.028837427
-0.0275414 0.082862124 -0.10022241 0.2057899 0.14294557 -0.0005306056 -0.1439317 0.21988402
-0.093126886 -0.10007407 -0.20309375 0.05973874 -0.08335272 0.07347167 0.034682877 -0.15329836
-0.093063176 0.121406265 -0.05075511 -0.023307877 0.1332349 -0.039181188 0.16036913 -0.064524785
0.0056262454 0.011580347 0.1459607 0.055486094 0.092491746 0.1067737 0.046747345 -0.17033999
0.13082503 -0.0063852984 -0.10617055 0.012988568 -0.06570692 -0.05735076 -0.12331196 0.00632023
-0.07656444 0.12716661 -0.049054194 0.049887877 -0.05699452 0.15240493 -0.05279666 0.067916445
-0.15060386 0.16011907 0.0016651877 0.1216429 -0.06471796 -0.052658364 0.09255983 0.19113839
-0.026622169 0.099227965 -0.00030291657 0.10173261 -0.04965016 0.08634282 0.12312716 0.078686506
0.00977413 0.07849612 0.024696376 0.19398056 0.16347142 -0.14455068 -0.02115022 0.14544055
-0.09561679 0.042285006 -0.04857696 -0.029046524 0.09645583 0.04358981 0.06624251 -0.15541647
0.037362106 0.026781209 0.16907689 -0.040496066 -0.028856982 -0.07244684 0.13693158 0.0634398
-0.021366838 -0.10607005 -0.03867457 0.19911548 -0.05159213 0.024498168 0.0044835513 -0.13858324
0.026592368 0.112232536 -0.08212182 0.16663755 0.02308182 0.034416195 -0.0758724 0.08507885
-0.012961364 0.14781539 -0.070737876 0.10320522 -0.030122304 -0.06765684 0.07285444 -0.021397177
-0.024406962 0.07113911 0.075972244 -0.0415927 -0.15281245 -0.10174571 0.066548005 0.012649961
0.07010848 0.13454318 -0.014853142 -0.027745696 0.09875308 -0.036326103 0.112531886 -0.054728944
00000000: 4211 5f3d 4fa4 2dbd 3e49 423d 5565 5f3e
00000010: 028c 0a3d 82b1 a9bd bda7 a53c 9adf e1bc
00000020: 3608 eabd 5c85 d73d 6ab9 0ebe 4033 0a3d
00000030: 5d74 e7bc ce92 353e 1792 2e3e d0e0 f3bb
00000040: a06b aa3d e1b1 cebd 42bb 843d 8da0 343d
00000050: 6f78 dabd c88e 833d b4cd 82bc 7de4 92bc
00000060: dd68 ddbd b428 d33c 0841 1b3e 64d9 c8bb
00000070: cfd5 83bd eb52 2bbd 341a fe3d 2b59 11bd
00000080: ed86 a2bd 3dd9 fc3c 9e0d 2bbe fa1c 993c
00000090: 7173 88bc fdd3 fabd bdd5 b4bd 27df c43c
000000a0: 2178 80bd 5ed0 7a3d 5215 d93d 1afe 10be
000000b0: cd17 e0bd 92f2 d13d 85d5 cabd 703d 693c
000000c0: 41df b1bd a5da 7b3d 35ac 2f3e d32c bc3d
000000d0: 2af8 babd 7b12 88bc 5d31 973b f24d 9bbc
000000e0: ad37 07bc d353 ed3d 89e9 12bd 7496 cf3d
000000f0: 5df7 7d3c b494 d4bc 8733 133c 648d 8cbd
00000100: 38b0 aebd a193 fb3d fa19 d43c 9834 50bd
00000110: d2a9 8f3d cf6a 06bd 0f52 163e 43ac 963c
00000120: 1a9c 48bd 235f 843d fc8a 1c3d 6a4f d7bc
00000130: 1c8d 09be 52fa a6bd 47b3 2cbe 29cd 053d
00000140: 21ed 063e 5e22 01be bdb1 7dbc bb67 afbd
00000150: 5edb 97bd 8134 9f3d 7b93 2d3d 5ea2 90bd
00000160: 33db a8bc fa62 86bd ece8 8b3d fbc2 e13d
00000170: 2134 f3bc e327 2cbe 082e 213d 84cc af3d
00000180: 17ef 16bc 3198 033d cc46 13bc b601 79bd
00000190: a34c ffbd ada3 cd3d a269 963c 3681 d93d
000001a0: 7984 b33d c8e3 b9bc 0698 5dbd f736 4b3b
000001b0: 9c57 f53d b428 ca3d 068b 6cbb e023 cebc
000001c0: c169 ad3d 3904 3a3d 9bff 0d3d d9fe baba
000001d0: df3b dcbd 7e70 a5bd 3cc3 16bc 8ecf 6dbd
000001e0: b5a8 eb3d 8436 28bd fba0 acbd d2fa 80bd
000001f0: ceaa fd3d 7eae 60bd 8d17 34be 783c ecbc
00000200: 819e e1bc 9eb3 a93d 6841 cdbd 96ba 523e
00000210: 5360 123e 5718 0bba d562 13be 4729 613e
00000220: 4fb9 bebd a2f3 ccbd cff7 4fbe 9cb0 743d
00000230: d5b4 aabd 5178 963d a20f 0e3d 3ffa 1cbe
00000240: e897 bebd d9a3 f83d 97e4 4fbd 29f0 bebc
00000250: bb6e 083e 747c 20bd ce37 243e 9225 84bd
00000260: 5e5c b83b 7fbb 3d3c b976 153e 6345 633d
00000270: 506c bd3d 2bac da3d 257a 3f3d 9b6d 2ebe
00000280: fff6 053e c43b d1bb f26f d9bd 01ce 543c
00000290: 5a91 86bd a1e8 6abd fb8a fcbd ef19 cf3b
000002a0: d1cd 9cbd f737 023e 0ded 48bd 3b57 4c3d
000002b0: 1673 69bd 0a10 1c3e 5041 58bd c717 8b3d
000002c0: e637 1abe 41f6 233e 6d42 da3a ea1f f93d
000002d0: da8a 84bd 4cb0 57bd 0290 bd3d c8b9 433e
000002e0: bc16 dabc 0838 cb3d c6d0 9eb9 3059 d03d
000002f0: f75d 4bbd 81d4 b03d 182a fc3d 6426 a13d
00000300: ac23 203c 93c2 a03d 0e50 ca3c d7a2 463e
00000310: 0d65 273e 1805 14be 3a43 adbc 5eee 143e
00000320: bcd2 c3bd 0b33 2d3d a2f8 46bd faf2 edbc
00000330: a28a c53d 3b8b 323d 27aa 873d 7f25 1fbe
00000340: 0209 193d 4464 db3c 7e22 2d3e 34df 25bd
00000350: 7a65 ecbc 025f 94bd cb37 0c3e baec 813d
00000360: 8209 afbc 413b d9bd 3a69 1ebd eee4 4b3e
00000370: 4552 53bd 62b0 c83c c1ea 923b c4e8 0dbe
00000380: 3dd8 d93c 2cda e53d 7c2f a8bd 09a3 2a3e
00000390: 1616 bd3c fff7 0c3d fd62 9bbd d23d ae3d
000003a0: e75b 54bc eb5c 173e 05df 90bd 425d d33d
000003b0: 0dc3 f6bc ab8f 8abd b534 953d 2249 afbc
000003c0: 1cf1 c7bc 62b1 913d 5697 9b3d 1b5d 2abd
000003d0: de7a 1cbe 0e60 d0bd 524a 883d c841 4f3c
000003e0: 0995 8f3d b0c5 093e 985a 73bc f14a e3bc
000003f0: 0e3f ca3d aeca 14bd 1e77 e63d 752b 60bd

encoder_layers.0.attn.linears.1.bias f4 [64]
0.13069332 -0.062355407 0.11914113 0.123169005 -0.028279774 -0.0872221 0.018846188 0.019103747
0.06515418 0.02919927 0.08650906 -0.12936105 -0.10051067 -0.067157626 -0.15500166 0.01873106
-0.014703093 0.17850102 0.12862466 -0.13719322 -0.057574373 -0.00064860797 0.16152988 0.1601932
-0.06489406 0.056111317 0.033028748 -0.16372694 0.11820904 0.07945158 0.1389236 -0.14260389
0.045363475 0.050644834 -0.10210873 -0.09759804 -0.012054858 0.16815752 -0.14589791 -0.11068861
0.12594801 0.044133 0.14124148 0.07466536 -0.0752396 0.11306491 0.030911863 -0.111655384
0.09184816 0.059173632 -0.109969914 -0.021064252 -0.09025378 -0.071197964 0.0754264 -0.07794292
0.16102542 -0.123735055 -0.074126154 0.10663735 -0.09185879 -0.06879873 -0.05900177 0.078202754
00000000: 78d4 053e 6268 7fbd 4400 f43d 0840 fc3d
00000010: fcaa e7bc 80a1 b2bd 5263 9a3c 767f 9c3c
00000020: 8e6f 853d 4f33 ef3c a92b b13d 3977 04be
00000030: 8ad8 cdbd f089 89bd c1b8 1ebe e171 993c
00000040: 3ee5 70bc f9c8 363e 2fb6 033e 617c 0cbe
00000050: 1bd3 6bbd 5807 2aba 1768 253e b009 243e
00000060: 2de7 84bd fbd4 653d 2749 073d 09a8 27be
00000070: 9517 f23d 83b7 a23d fd41 0e3e c106 12be
00000080: 0dcf 393d f570 4f3d 621e d1bd 7be1 c7bd
00000090: bd81 45bc 7c31 2c3e 4366 15be b6b0 e2bd
000000a0: 84f8 003e cec4 343d 9ba1 103e 27ea 983d
000000b0: 3817 9abd 938e e73d e03a fd3c 94ab e4bd
000000c0: e31a bc3d 0d60 723d e837 e1bd f08e acbc
000000d0: f9d6 b8bd 3dd0 91bd 2879 9a3d 8aa0 9fbd
000000e0: d9e3 243e ce68 fdbd 74cf 97bd af64 da3d
000000f0: 7620 bcbd 59e6 8cbd d7ab 71bd c428 a03d

encoder_layers.0.attn.linears.2.weight f4 [64, 64]
-0.0646556 0.047848765 0.09193333 -0.13860516 0.042733237 -0.034338985 -0.040939193 -0.045361523
0.024858419 0.055789407 0.016878523 -0.06795936 0.022880051 -0.022554077 -0.048812322 0.07176659
0.051492497 0.123657525 0.09121988 -0.0044966536 -0.010627111 0.012743559 -0.15598346 0.054072384
0.10402559 -0.04566536 0.038336232 0.045638125 -0.18911941 -0.10108455 -0.10784629 0.056061
-0.17594709 -0.028915811 0.15234663 -0.021154806 0.041238856 -0.05446189 0.06528954 0.10028315
-0.035265256 -0.16205783 0.16017424 -0.01638189 0.11866933 -0.05526665 0.023112008 -0.087857306
-0.095730506 -0.1742144 -0.15288764 0.14930576 0.14174305 -0.037454866 -0.057704605 -0.04200236
0.17013955 0.009793537 -0.17469274 0.04824817 -0.12711215 -0.05805477 0.033965625 0.06049455
0.007271352 0.04421461 -0.036613423 -0.061025187 -0.050022602 -0.11759086 -0.09981588 -0.053242702
0.05565452 0.072230525 0.09869776 0.12697583 0.16721526 -0.0032573082 0.17145371 0.049470443
-0.05335228 0.021123348 0.06496618 0.17070712 -0.013120944 0.12175169 -0.08507588 -0.12962687
-0.0054026777 -0.05030071 -0.004153525 -0.036250874 -0.15806757 -0.0031387124 0.011342277 -0.030079802
-0.07325259 0.016744591 -0.13147861 0.10431645 0.028041296 0.03310103 -0.005814169 0.091574125
-0.036803734 0.092591316 -0.14732738 -0.111055866 -0.0017653283 -0.1093309 -0.057232063 0.12745112
0.14558047 0.107528985 0.07924731 -0.072163984 0.053639214 -0.019561756 -0.029328164 -0.12111102
-0.12593864 0.0697982 0.055948634 0.043807894 -0.10534904 0.00021123442 0.072395645 0.08163819
-0.0009749348 0.037038457 0.047798693 0.13248625 -0.1341058 0.09674464 0.10425625 -0.034485705
0.025705846 -0.040413294 0.15081213 -0.13548781 -0.024249466 0.0009656367 -0.08912671 -0.08148309
-0.017836489 -0.040256973 -0.0727675 -0.1609348 0.17991875 -0.13186997 -0.03271358 0.11723844
-0.06729079 0.08815415 0.020041808 -0.06585561 0.1318713 -0.16917877 -0.031426743 -0.16889226
-0.12218637 -0.10680234 0.09673834 -0.15933481 0.025423849 0.041374207 -0.097291164 -0.14540948
0.018572852 -0.08081691 -0.04210308 0.18899253 0.09079465 0.012679851 -0.12675184 -0.17855369
0.0115187075 0.06009005 0.02064958 -0.010052046 0.17409934 0.08439771 -0.126701 -0.050557595
0.025209198 -0.09508124 -0.041046992 -0.005345421 -0.021728352 0.04521707 -0.05804127 -0.13492508
0.050948784 -0.013463158 0.033674728 0.094468445 0.011009539 0.028653005 0.121908605 -0.11037429
-0.019514007 0.03046492 0.019498233 -0.1907093 -0.0057235267 -0.033971053 -0.15082538 0.1778164
0.08131239 0.099407874 0.009148621 -0.05696142 0.057382524 -0.13603693 -0.014358495 0.15325199
0.0037672871 0.12623322 -0.12189241 -0.08987323 -0.07339416 0.06423009 -0.01401902 -0.18046519
-0.13235074 -0.07239835 0.104410194 -0.03730122 -0.117460154 0.03117984 -0.00942041 -0.060524296
0.09499129 -0.1796725 -0.044549055 0.09907946 0.054036044 -0.052232444 -0.07283633 0.0069959313
0.056805145 -0.097936235 -0.10451486 0.1041402 0.13327898 0.10692939 -0.013592291 0.17408063
0.06983322 -0.01715588 -0.1072046 -0.13708252 -0.17803174 -0.015089219 -0.118336685 -0.14726415
00000000: 286a 84bd 11fd 433d 8b47 bc3d 83ee 0dbe
00000010: 0c09 2f3d 09a7 0cbd dbaf 27bd 01cd 39bd
00000020: e2a3 cb3c 6f83 643d d444 8a3c 472e 8bbd
00000030: f26e bb3c 54c3 b8bc 6eef 47bd 5dfa 923d
00000040: cce9 523d 2840 fd3d 7dd1 ba3d aa58 93bb
00000050: 561d 2ebc 5cca 503c 21ba 1fbe 017b 5d3d
00000060: 5e0b d53d 9a0b 3bbd 7406 1d3d 0bef 3a3d
00000070: 85a8 41be 6b05 cfbd 84de dcbd 38a0 653d
00000080: 792b 34be dae0 ecbc c100 1c3e d84c adbc
00000090: 13ea 283d 6e13 5fbd 86b6 853d 4161 cd3d
000000a0: 4d72 10bd 7df2 25be b704 243e 5033 86bc
000000b0: e808 f33d 485f 62bd 6555 bd3c 88ee b3bd
000000c0: 5b0e c4bd 4265 32be 948e 1cbe 9ce3 183e
000000d0: 1725 113e 466a 19bd aa5b 6cbd ab0a 2cbd
000000e0: 1039 2e3e 1275 203c a7e2 32be e09f 453d
000000f0: b029 02be d7ca 6dbd 8a1f 0b3d 22c9 773d
00000100: 8644 ee3b 611a 353d f5f7 15bd 8cf5 79bd
00000110: 80e4 4cbd 7ad3 f0bd 456c ccbd 0515 5abd
00000120: fef5 633d 99ed 933d 0d22 ca3d f405 023e
00000130: 7a3a 2b3e 9078 55bb 9091 2f3e 85a1 4a3d
00000140: ec87 5abd df0a ad3c fd0c 853d d9cd 2e3e
00000150: 3af9 56bc f358 f93d 433c aebd e8bc 04be
00000160: f208 b1bb 1e08 4ebd 4b1a 88bb cc7b 14bd
00000170: 77dc 21be dbb2 4dbb f5d4 393c eb69 f6bc
00000180: 7405 96bd f42b 893c 54a2 06be dda3 d53d
00000190: dcb6 e53c f294 073d c984 bebb 378b bb3d
000001a0: 83bf 16bd 84a0 bd3d fddc 16be 4271 e3bd
000001b0: 9762 e7ba e1e8 dfbd 2b6c 6abd 8c82 023e
000001c0: 0c13 153e 2838 dc3d 6a4c a23d b6ca 93bd
000001d0: cbb4 5b3d fa3f a0bc 9e41 f0bc 0e09 f8bd
000001e0: 0ff6 00be 5cf2 8e3d 652a 653d e86f 333d
000001f0: 3dc1 d7bd cf7e 5d39 2b44 943d ec31 a73d
00000200: c492 7fba a3b5 173d 90c8 433d 7aaa 073e
00000210: 0853 09be 0e22 c63d 4d84 d53d e240 0dbd
00000220: 1195 d23c 6988 25bd 7f6e 1a3e 51bd 0abe
00000230: d1a6 c6bc c822 7d3a 1188 b6bd 9be0 a6bd
00000240: d41d 92bc 7fe4 24bd 2107 95bd 18cc 24be
00000250: 9f3c 383e ec08 07be adfe 05bd b51a f03d
00000260: c1cf 89bd 2a8a b43d b82e a43c 4edf 86bd
00000270: 4509 073e 333d 2dbe 54b9 00bd 18f2 2cbe
00000280: d93c fabd 2fbb dabd c01e c63d aa28 23be
00000290: ad45 d03c 0078 293d 9740 c7bd 39e6 14be
000002a0: 1826 983c 5683 a5bd 4774 2cbd 4287 413e
000002b0: 8cf2 b93d 26bf 4f3c 3ccb 01be c7d6 36be
000002c0: f6b8 3c3c fc20 763d 4f29 a93c 56b1 24bc
000002d0: 1947 323e b5d8 ac3d e8bd 01be 7b15 4fbd
000002e0: 8583 ce3c f4b9 c2bd e420 28bd a428 afbb
000002f0: a8ff b1bc 8935 393d afbc 6dbd cd29 0abe
00000300: acaf 503d 9494 5cbc 83ee 093d ac78 c13d
00000310: 5a61 343c b5b9 ea3c 38ab f93d ea0b e2bd
00000320: d7db 9fbc 9191 f93c c2ba 9f3c 4c49 43be
00000330: 6c8c bbbb 3b25 0bbd f871 1abe 8115 363e
00000340: 1c87 a63d 5b96 cb3d 19e4 153c 6150 69bd
00000350: f009 6b3d 444d 0bbe e53f 6bbc 17ee 1c3e
00000360: 97e4 763b 4843 013e baa2 f9bd 750f b8bd
00000370: ad4f 96bd 118b 833d 08b0 65bc decb 38be
00000380: f486 07be 9645 94bd 03d5 d53d 2ac9 18bd
00000390: f38e f0bd dd6c ff3c 1058 1abc 53e8 77bd
000003a0: cb8a c23d 11fc 37be 1279 36bd 2cea ca3d
000003b0: e654 5d3d b0f1 55bd 372b 95bd 203e e53b
000003c0: 83ac 683d cb92 c8bd e30b d6bd 7547 d53d
000003d0: 497a 083e ccfd da3d 33b2 5ebc 3142 323e
000003e0: b804 8f3d 7d8a 8cbc 168e dbbd 5c5f 0cbe
000003f0: f44d 36be c638 77bc 815a f2bd 6acc 16be
